program(1.0)
[buildInfo = dict<tensor<string, []>, tensor<string, []>>({{"coremlc-component-MIL", "3510.2.1"}, {"coremlc-version", "3500.32.1"}, {"coremltools-component-torch", "1.13.0"}, {"coremltools-source-dialect", "TorchScript"}, {"coremltools-version", "7.1"}})]
{
    func main<ios15>(tensor<fp32, [1, 3, 256, 256]> image) {
            tensor<fp32, []> image__scaled___y_0 = const()[name = tensor<string, []>("image__scaled___y_0"), val = tensor<fp32, []>(0x1.010102p-8)];
            tensor<fp32, [1, 3, 256, 256]> image__scaled__ = mul(x = image, y = image__scaled___y_0)[name = tensor<string, []>("image__scaled__")];
            tensor<int32, []> var_3 = const()[name = tensor<string, []>("op_3"), val = tensor<int32, []>(64)];
            tensor<int32, []> var_5 = const()[name = tensor<string, []>("op_5"), val = tensor<int32, []>(1)];
            tensor<bool, []> var_7 = const()[name = tensor<string, []>("op_7"), val = tensor<bool, []>(false)];
            tensor<bool, []> var_8 = const()[name = tensor<string, []>("op_8"), val = tensor<bool, []>(true)];
            tensor<int32, []> var_15 = const()[name = tensor<string, []>("op_15"), val = tensor<int32, []>(128)];
            tensor<int32, []> var_16 = const()[name = tensor<string, []>("op_16"), val = tensor<int32, []>(256)];
            tensor<int32, []> var_17 = const()[name = tensor<string, []>("op_17"), val = tensor<int32, []>(512)];
            tensor<int32, []> var_21 = const()[name = tensor<string, []>("op_21"), val = tensor<int32, []>(-1)];
            tensor<int32, [2]> var_49 = const()[name = tensor<string, []>("op_49"), val = tensor<int32, [2]>([2, 2])];
            tensor<int32, [2]> var_51 = const()[name = tensor<string, []>("op_51"), val = tensor<int32, [2]>([1, 1])];
            tensor<string, []> input0_4_pad_type_0 = const()[name = tensor<string, []>("input0_4_pad_type_0"), val = tensor<string, []>("custom")];
            tensor<int32, [4]> input0_4_pad_0 = const()[name = tensor<string, []>("input0_4_pad_0"), val = tensor<int32, [4]>([1, 1, 1, 1])];
            tensor<string, []> image_to_fp16_dtype_0 = const()[name = tensor<string, []>("image_to_fp16_dtype_0"), val = tensor<string, []>("fp16")];
            tensor<fp16, [64, 3, 3, 3]> image_encoder_model_patch_embed_0_reparam_conv_weight_to_fp16 = const()[name = tensor<string, []>("image_encoder_model_patch_embed_0_reparam_conv_weight_to_fp16"), val = tensor<fp16, [64, 3, 3, 3]>(BLOBFILE(path = tensor<string, []>("@model_path/weights/weight.bin"), offset = tensor<uint64, []>(64)))];
            tensor<fp16, [64]> image_encoder_model_patch_embed_0_reparam_conv_bias_to_fp16 = const()[name = tensor<string, []>("image_encoder_model_patch_embed_0_reparam_conv_bias_to_fp16"), val = tensor<fp16, [64]>(BLOBFILE(path = tensor<string, []>("@model_path/weights/weight.bin"), offset = tensor<uint64, []>(3584)))];
            tensor<fp16, [1, 3, 256, 256]> cast_10 = cast(dtype = image_to_fp16_dtype_0, x = image__scaled__)[name = tensor<string, []>("cast_10")];
            tensor<fp16, [1, 64, 128, 128]> input0_4_cast_fp16 = conv(bias = image_encoder_model_patch_embed_0_reparam_conv_bias_to_fp16, dilations = var_51, groups = var_5, pad = input0_4_pad_0, pad_type = input0_4_pad_type_0, strides = var_49, weight = image_encoder_model_patch_embed_0_reparam_conv_weight_to_fp16, x = cast_10)[name = tensor<string, []>("input0_4_cast_fp16")];
            tensor<string, []> var_54_mode_0 = const()[name = tensor<string, []>("op_54_mode_0"), val = tensor<string, []>("EXACT")];
            tensor<fp16, [1, 64, 128, 128]> var_54_cast_fp16 = gelu(mode = var_54_mode_0, x = input0_4_cast_fp16)[name = tensor<string, []>("op_54_cast_fp16")];
            tensor<int32, [2]> var_58 = const()[name = tensor<string, []>("op_58"), val = tensor<int32, [2]>([2, 2])];
            tensor<int32, [2]> var_60 = const()[name = tensor<string, []>("op_60"), val = tensor<int32, [2]>([1, 1])];
            tensor<string, []> input_127_pad_type_0 = const()[name = tensor<string, []>("input_127_pad_type_0"), val = tensor<string, []>("custom")];
            tensor<int32, [4]> input_127_pad_0 = const()[name = tensor<string, []>("input_127_pad_0"), val = tensor<int32, [4]>([1, 1, 1, 1])];
            tensor<fp16, [64, 1, 3, 3]> image_encoder_model_patch_embed_1_reparam_conv_weight_to_fp16 = const()[name = tensor<string, []>("image_encoder_model_patch_embed_1_reparam_conv_weight_to_fp16"), val = tensor<fp16, [64, 1, 3, 3]>(BLOBFILE(path = tensor<string, []>("@model_path/weights/weight.bin"), offset = tensor<uint64, []>(3776)))];
            tensor<fp16, [64]> image_encoder_model_patch_embed_1_reparam_conv_bias_to_fp16 = const()[name = tensor<string, []>("image_encoder_model_patch_embed_1_reparam_conv_bias_to_fp16"), val = tensor<fp16, [64]>(BLOBFILE(path = tensor<string, []>("@model_path/weights/weight.bin"), offset = tensor<uint64, []>(4992)))];
            tensor<fp16, [1, 64, 64, 64]> input_127_cast_fp16 = conv(bias = image_encoder_model_patch_embed_1_reparam_conv_bias_to_fp16, dilations = var_60, groups = var_3, pad = input_127_pad_0, pad_type = input_127_pad_type_0, strides = var_58, weight = image_encoder_model_patch_embed_1_reparam_conv_weight_to_fp16, x = var_54_cast_fp16)[name = tensor<string, []>("input_127_cast_fp16")];
            tensor<string, []> var_63_mode_0 = const()[name = tensor<string, []>("op_63_mode_0"), val = tensor<string, []>("EXACT")];
            tensor<fp16, [1, 64, 64, 64]> var_63_cast_fp16 = gelu(mode = var_63_mode_0, x = input_127_cast_fp16)[name = tensor<string, []>("op_63_cast_fp16")];
            tensor<int32, [2]> var_67 = const()[name = tensor<string, []>("op_67"), val = tensor<int32, [2]>([1, 1])];
            tensor<int32, [2]> var_69 = const()[name = tensor<string, []>("op_69"), val = tensor<int32, [2]>([1, 1])];
            tensor<string, []> input_131_pad_type_0 = const()[name = tensor<string, []>("input_131_pad_type_0"), val = tensor<string, []>("custom")];
            tensor<int32, [4]> input_131_pad_0 = const()[name = tensor<string, []>("input_131_pad_0"), val = tensor<int32, [4]>([0, 0, 0, 0])];
            tensor<fp16, [64, 64, 1, 1]> image_encoder_model_patch_embed_2_reparam_conv_weight_to_fp16 = const()[name = tensor<string, []>("image_encoder_model_patch_embed_2_reparam_conv_weight_to_fp16"), val = tensor<fp16, [64, 64, 1, 1]>(BLOBFILE(path = tensor<string, []>("@model_path/weights/weight.bin"), offset = tensor<uint64, []>(5184)))];
            tensor<fp16, [64]> image_encoder_model_patch_embed_2_reparam_conv_bias_to_fp16 = const()[name = tensor<string, []>("image_encoder_model_patch_embed_2_reparam_conv_bias_to_fp16"), val = tensor<fp16, [64]>(BLOBFILE(path = tensor<string, []>("@model_path/weights/weight.bin"), offset = tensor<uint64, []>(13440)))];
            tensor<fp16, [1, 64, 64, 64]> input_131_cast_fp16 = conv(bias = image_encoder_model_patch_embed_2_reparam_conv_bias_to_fp16, dilations = var_69, groups = var_5, pad = input_131_pad_0, pad_type = input_131_pad_type_0, strides = var_67, weight = image_encoder_model_patch_embed_2_reparam_conv_weight_to_fp16, x = var_63_cast_fp16)[name = tensor<string, []>("input_131_cast_fp16")];
            tensor<string, []> var_72_mode_0 = const()[name = tensor<string, []>("op_72_mode_0"), val = tensor<string, []>("EXACT")];
            tensor<fp16, [1, 64, 64, 64]> var_72_cast_fp16 = gelu(mode = var_72_mode_0, x = input_131_cast_fp16)[name = tensor<string, []>("op_72_cast_fp16")];
            tensor<int32, [2]> var_81 = const()[name = tensor<string, []>("op_81"), val = tensor<int32, [2]>([1, 1])];
            tensor<int32, [2]> var_83 = const()[name = tensor<string, []>("op_83"), val = tensor<int32, [2]>([1, 1])];
            tensor<string, []> input_19_pad_type_0 = const()[name = tensor<string, []>("input_19_pad_type_0"), val = tensor<string, []>("custom")];
            tensor<int32, [4]> input_19_pad_0 = const()[name = tensor<string, []>("input_19_pad_0"), val = tensor<int32, [4]>([1, 1, 1, 1])];
            tensor<fp16, [64, 1, 3, 3]> image_encoder_model_network_0_0_token_mixer_reparam_conv_weight_to_fp16 = const()[name = tensor<string, []>("image_encoder_model_network_0_0_token_mixer_reparam_conv_weight_to_fp16"), val = tensor<fp16, [64, 1, 3, 3]>(BLOBFILE(path = tensor<string, []>("@model_path/weights/weight.bin"), offset = tensor<uint64, []>(13632)))];
            tensor<fp16, [64]> image_encoder_model_network_0_0_token_mixer_reparam_conv_bias_to_fp16 = const()[name = tensor<string, []>("image_encoder_model_network_0_0_token_mixer_reparam_conv_bias_to_fp16"), val = tensor<fp16, [64]>(BLOBFILE(path = tensor<string, []>("@model_path/weights/weight.bin"), offset = tensor<uint64, []>(14848)))];
            tensor<fp16, [1, 64, 64, 64]> input_19_cast_fp16 = conv(bias = image_encoder_model_network_0_0_token_mixer_reparam_conv_bias_to_fp16, dilations = var_83, groups = var_3, pad = input_19_pad_0, pad_type = input_19_pad_type_0, strides = var_81, weight = image_encoder_model_network_0_0_token_mixer_reparam_conv_weight_to_fp16, x = var_72_cast_fp16)[name = tensor<string, []>("input_19_cast_fp16")];
            tensor<int32, [2]> var_92 = const()[name = tensor<string, []>("op_92"), val = tensor<int32, [2]>([1, 1])];
            tensor<int32, [2]> var_94 = const()[name = tensor<string, []>("op_94"), val = tensor<int32, [2]>([1, 1])];
            tensor<string, []> input_21_pad_type_0 = const()[name = tensor<string, []>("input_21_pad_type_0"), val = tensor<string, []>("custom")];
            tensor<int32, [4]> input_21_pad_0 = const()[name = tensor<string, []>("input_21_pad_0"), val = tensor<int32, [4]>([3, 3, 3, 3])];
            tensor<fp16, [64, 1, 7, 7]> input_23_weight_0_to_fp16 = const()[name = tensor<string, []>("input_23_weight_0_to_fp16"), val = tensor<fp16, [64, 1, 7, 7]>(BLOBFILE(path = tensor<string, []>("@model_path/weights/weight.bin"), offset = tensor<uint64, []>(15040)))];
            tensor<fp16, [64]> input_23_bias_0_to_fp16 = const()[name = tensor<string, []>("input_23_bias_0_to_fp16"), val = tensor<fp16, [64]>(BLOBFILE(path = tensor<string, []>("@model_path/weights/weight.bin"), offset = tensor<uint64, []>(21376)))];
            tensor<fp16, [1, 64, 64, 64]> input_23_cast_fp16 = conv(bias = input_23_bias_0_to_fp16, dilations = var_94, groups = var_3, pad = input_21_pad_0, pad_type = input_21_pad_type_0, strides = var_92, weight = input_23_weight_0_to_fp16, x = input_19_cast_fp16)[name = tensor<string, []>("input_23_cast_fp16")];
            tensor<int32, [2]> var_104 = const()[name = tensor<string, []>("op_104"), val = tensor<int32, [2]>([1, 1])];
            tensor<int32, [2]> var_106 = const()[name = tensor<string, []>("op_106"), val = tensor<int32, [2]>([1, 1])];
            tensor<string, []> input_25_pad_type_0 = const()[name = tensor<string, []>("input_25_pad_type_0"), val = tensor<string, []>("custom")];
            tensor<int32, [4]> input_25_pad_0 = const()[name = tensor<string, []>("input_25_pad_0"), val = tensor<int32, [4]>([0, 0, 0, 0])];
            tensor<fp16, [192, 64, 1, 1]> image_encoder_model_network_0_0_convffn_fc1_weight_to_fp16 = const()[name = tensor<string, []>("image_encoder_model_network_0_0_convffn_fc1_weight_to_fp16"), val = tensor<fp16, [192, 64, 1, 1]>(BLOBFILE(path = tensor<string, []>("@model_path/weights/weight.bin"), offset = tensor<uint64, []>(21568)))];
            tensor<fp16, [192]> image_encoder_model_network_0_0_convffn_fc1_bias_to_fp16 = const()[name = tensor<string, []>("image_encoder_model_network_0_0_convffn_fc1_bias_to_fp16"), val = tensor<fp16, [192]>(BLOBFILE(path = tensor<string, []>("@model_path/weights/weight.bin"), offset = tensor<uint64, []>(46208)))];
            tensor<fp16, [1, 192, 64, 64]> input_25_cast_fp16 = conv(bias = image_encoder_model_network_0_0_convffn_fc1_bias_to_fp16, dilations = var_106, groups = var_5, pad = input_25_pad_0, pad_type = input_25_pad_type_0, strides = var_104, weight = image_encoder_model_network_0_0_convffn_fc1_weight_to_fp16, x = input_23_cast_fp16)[name = tensor<string, []>("input_25_cast_fp16")];
            tensor<string, []> var_109_mode_0 = const()[name = tensor<string, []>("op_109_mode_0"), val = tensor<string, []>("EXACT")];
            tensor<fp16, [1, 192, 64, 64]> var_109_cast_fp16 = gelu(mode = var_109_mode_0, x = input_25_cast_fp16)[name = tensor<string, []>("op_109_cast_fp16")];
            tensor<int32, [2]> var_113 = const()[name = tensor<string, []>("op_113"), val = tensor<int32, [2]>([1, 1])];
            tensor<int32, [2]> var_115 = const()[name = tensor<string, []>("op_115"), val = tensor<int32, [2]>([1, 1])];
            tensor<string, []> input_29_pad_type_0 = const()[name = tensor<string, []>("input_29_pad_type_0"), val = tensor<string, []>("custom")];
            tensor<int32, [4]> input_29_pad_0 = const()[name = tensor<string, []>("input_29_pad_0"), val = tensor<int32, [4]>([0, 0, 0, 0])];
            tensor<fp16, [64, 192, 1, 1]> var_119_weight_0_to_fp16 = const()[name = tensor<string, []>("op_119_weight_0_to_fp16"), val = tensor<fp16, [64, 192, 1, 1]>(BLOBFILE(path = tensor<string, []>("@model_path/weights/weight.bin"), offset = tensor<uint64, []>(46656)))];
            tensor<fp16, [64]> var_119_bias_0_to_fp16 = const()[name = tensor<string, []>("op_119_bias_0_to_fp16"), val = tensor<fp16, [64]>(BLOBFILE(path = tensor<string, []>("@model_path/weights/weight.bin"), offset = tensor<uint64, []>(71296)))];
            tensor<fp16, [1, 64, 64, 64]> var_119_cast_fp16 = conv(bias = var_119_bias_0_to_fp16, dilations = var_115, groups = var_5, pad = input_29_pad_0, pad_type = input_29_pad_type_0, strides = var_113, weight = var_119_weight_0_to_fp16, x = var_109_cast_fp16)[name = tensor<string, []>("op_119_cast_fp16")];
            tensor<fp16, [1, 64, 64, 64]> var_120_cast_fp16 = add(x = input_19_cast_fp16, y = var_119_cast_fp16)[name = tensor<string, []>("op_120_cast_fp16")];
            tensor<int32, [2]> var_127 = const()[name = tensor<string, []>("op_127"), val = tensor<int32, [2]>([1, 1])];
            tensor<int32, [2]> var_129 = const()[name = tensor<string, []>("op_129"), val = tensor<int32, [2]>([1, 1])];
            tensor<string, []> input_31_pad_type_0 = const()[name = tensor<string, []>("input_31_pad_type_0"), val = tensor<string, []>("custom")];
            tensor<int32, [4]> input_31_pad_0 = const()[name = tensor<string, []>("input_31_pad_0"), val = tensor<int32, [4]>([1, 1, 1, 1])];
            tensor<fp16, [64, 1, 3, 3]> image_encoder_model_network_0_1_token_mixer_reparam_conv_weight_to_fp16 = const()[name = tensor<string, []>("image_encoder_model_network_0_1_token_mixer_reparam_conv_weight_to_fp16"), val = tensor<fp16, [64, 1, 3, 3]>(BLOBFILE(path = tensor<string, []>("@model_path/weights/weight.bin"), offset = tensor<uint64, []>(71488)))];
            tensor<fp16, [64]> image_encoder_model_network_0_1_token_mixer_reparam_conv_bias_to_fp16 = const()[name = tensor<string, []>("image_encoder_model_network_0_1_token_mixer_reparam_conv_bias_to_fp16"), val = tensor<fp16, [64]>(BLOBFILE(path = tensor<string, []>("@model_path/weights/weight.bin"), offset = tensor<uint64, []>(72704)))];
            tensor<fp16, [1, 64, 64, 64]> input_31_cast_fp16 = conv(bias = image_encoder_model_network_0_1_token_mixer_reparam_conv_bias_to_fp16, dilations = var_129, groups = var_3, pad = input_31_pad_0, pad_type = input_31_pad_type_0, strides = var_127, weight = image_encoder_model_network_0_1_token_mixer_reparam_conv_weight_to_fp16, x = var_120_cast_fp16)[name = tensor<string, []>("input_31_cast_fp16")];
            tensor<int32, [2]> var_138 = const()[name = tensor<string, []>("op_138"), val = tensor<int32, [2]>([1, 1])];
            tensor<int32, [2]> var_140 = const()[name = tensor<string, []>("op_140"), val = tensor<int32, [2]>([1, 1])];
            tensor<string, []> input_133_pad_type_0 = const()[name = tensor<string, []>("input_133_pad_type_0"), val = tensor<string, []>("custom")];
            tensor<int32, [4]> input_133_pad_0 = const()[name = tensor<string, []>("input_133_pad_0"), val = tensor<int32, [4]>([3, 3, 3, 3])];
            tensor<fp16, [64, 1, 7, 7]> input_35_weight_0_to_fp16 = const()[name = tensor<string, []>("input_35_weight_0_to_fp16"), val = tensor<fp16, [64, 1, 7, 7]>(BLOBFILE(path = tensor<string, []>("@model_path/weights/weight.bin"), offset = tensor<uint64, []>(72896)))];
            tensor<fp16, [64]> input_35_bias_0_to_fp16 = const()[name = tensor<string, []>("input_35_bias_0_to_fp16"), val = tensor<fp16, [64]>(BLOBFILE(path = tensor<string, []>("@model_path/weights/weight.bin"), offset = tensor<uint64, []>(79232)))];
            tensor<fp16, [1, 64, 64, 64]> input_35_cast_fp16 = conv(bias = input_35_bias_0_to_fp16, dilations = var_140, groups = var_3, pad = input_133_pad_0, pad_type = input_133_pad_type_0, strides = var_138, weight = input_35_weight_0_to_fp16, x = input_31_cast_fp16)[name = tensor<string, []>("input_35_cast_fp16")];
            tensor<int32, [2]> var_150 = const()[name = tensor<string, []>("op_150"), val = tensor<int32, [2]>([1, 1])];
            tensor<int32, [2]> var_152 = const()[name = tensor<string, []>("op_152"), val = tensor<int32, [2]>([1, 1])];
            tensor<string, []> input_37_pad_type_0 = const()[name = tensor<string, []>("input_37_pad_type_0"), val = tensor<string, []>("custom")];
            tensor<int32, [4]> input_37_pad_0 = const()[name = tensor<string, []>("input_37_pad_0"), val = tensor<int32, [4]>([0, 0, 0, 0])];
            tensor<fp16, [192, 64, 1, 1]> image_encoder_model_network_0_1_convffn_fc1_weight_to_fp16 = const()[name = tensor<string, []>("image_encoder_model_network_0_1_convffn_fc1_weight_to_fp16"), val = tensor<fp16, [192, 64, 1, 1]>(BLOBFILE(path = tensor<string, []>("@model_path/weights/weight.bin"), offset = tensor<uint64, []>(79424)))];
            tensor<fp16, [192]> image_encoder_model_network_0_1_convffn_fc1_bias_to_fp16 = const()[name = tensor<string, []>("image_encoder_model_network_0_1_convffn_fc1_bias_to_fp16"), val = tensor<fp16, [192]>(BLOBFILE(path = tensor<string, []>("@model_path/weights/weight.bin"), offset = tensor<uint64, []>(104064)))];
            tensor<fp16, [1, 192, 64, 64]> input_37_cast_fp16 = conv(bias = image_encoder_model_network_0_1_convffn_fc1_bias_to_fp16, dilations = var_152, groups = var_5, pad = input_37_pad_0, pad_type = input_37_pad_type_0, strides = var_150, weight = image_encoder_model_network_0_1_convffn_fc1_weight_to_fp16, x = input_35_cast_fp16)[name = tensor<string, []>("input_37_cast_fp16")];
            tensor<string, []> var_155_mode_0 = const()[name = tensor<string, []>("op_155_mode_0"), val = tensor<string, []>("EXACT")];
            tensor<fp16, [1, 192, 64, 64]> var_155_cast_fp16 = gelu(mode = var_155_mode_0, x = input_37_cast_fp16)[name = tensor<string, []>("op_155_cast_fp16")];
            tensor<int32, [2]> var_159 = const()[name = tensor<string, []>("op_159"), val = tensor<int32, [2]>([1, 1])];
            tensor<int32, [2]> var_161 = const()[name = tensor<string, []>("op_161"), val = tensor<int32, [2]>([1, 1])];
            tensor<string, []> input_135_pad_type_0 = const()[name = tensor<string, []>("input_135_pad_type_0"), val = tensor<string, []>("custom")];
            tensor<int32, [4]> input_135_pad_0 = const()[name = tensor<string, []>("input_135_pad_0"), val = tensor<int32, [4]>([0, 0, 0, 0])];
            tensor<fp16, [64, 192, 1, 1]> var_165_weight_0_to_fp16 = const()[name = tensor<string, []>("op_165_weight_0_to_fp16"), val = tensor<fp16, [64, 192, 1, 1]>(BLOBFILE(path = tensor<string, []>("@model_path/weights/weight.bin"), offset = tensor<uint64, []>(104512)))];
            tensor<fp16, [64]> var_165_bias_0_to_fp16 = const()[name = tensor<string, []>("op_165_bias_0_to_fp16"), val = tensor<fp16, [64]>(BLOBFILE(path = tensor<string, []>("@model_path/weights/weight.bin"), offset = tensor<uint64, []>(129152)))];
            tensor<fp16, [1, 64, 64, 64]> var_165_cast_fp16 = conv(bias = var_165_bias_0_to_fp16, dilations = var_161, groups = var_5, pad = input_135_pad_0, pad_type = input_135_pad_type_0, strides = var_159, weight = var_165_weight_0_to_fp16, x = var_155_cast_fp16)[name = tensor<string, []>("op_165_cast_fp16")];
            tensor<fp16, [1, 64, 64, 64]> var_166_cast_fp16 = add(x = input_31_cast_fp16, y = var_165_cast_fp16)[name = tensor<string, []>("op_166_cast_fp16")];
            tensor<int32, [2]> var_173 = const()[name = tensor<string, []>("op_173"), val = tensor<int32, [2]>([2, 2])];
            tensor<int32, [2]> var_175 = const()[name = tensor<string, []>("op_175"), val = tensor<int32, [2]>([1, 1])];
            tensor<string, []> input_33_pad_type_0 = const()[name = tensor<string, []>("input_33_pad_type_0"), val = tensor<string, []>("custom")];
            tensor<int32, [4]> input_33_pad_0 = const()[name = tensor<string, []>("input_33_pad_0"), val = tensor<int32, [4]>([3, 3, 3, 3])];
            tensor<fp16, [128, 1, 7, 7]> image_encoder_model_network_1_proj_0_lkb_reparam_weight_to_fp16 = const()[name = tensor<string, []>("image_encoder_model_network_1_proj_0_lkb_reparam_weight_to_fp16"), val = tensor<fp16, [128, 1, 7, 7]>(BLOBFILE(path = tensor<string, []>("@model_path/weights/weight.bin"), offset = tensor<uint64, []>(129344)))];
            tensor<fp16, [128]> image_encoder_model_network_1_proj_0_lkb_reparam_bias_to_fp16 = const()[name = tensor<string, []>("image_encoder_model_network_1_proj_0_lkb_reparam_bias_to_fp16"), val = tensor<fp16, [128]>(BLOBFILE(path = tensor<string, []>("@model_path/weights/weight.bin"), offset = tensor<uint64, []>(141952)))];
            tensor<fp16, [1, 128, 32, 32]> input_33_cast_fp16 = conv(bias = image_encoder_model_network_1_proj_0_lkb_reparam_bias_to_fp16, dilations = var_175, groups = var_3, pad = input_33_pad_0, pad_type = input_33_pad_type_0, strides = var_173, weight = image_encoder_model_network_1_proj_0_lkb_reparam_weight_to_fp16, x = var_166_cast_fp16)[name = tensor<string, []>("input_33_cast_fp16")];
            tensor<string, []> var_178_mode_0 = const()[name = tensor<string, []>("op_178_mode_0"), val = tensor<string, []>("EXACT")];
            tensor<fp16, [1, 128, 32, 32]> var_178_cast_fp16 = gelu(mode = var_178_mode_0, x = input_33_cast_fp16)[name = tensor<string, []>("op_178_cast_fp16")];
            tensor<int32, [2]> var_182 = const()[name = tensor<string, []>("op_182"), val = tensor<int32, [2]>([1, 1])];
            tensor<int32, [2]> var_184 = const()[name = tensor<string, []>("op_184"), val = tensor<int32, [2]>([1, 1])];
            tensor<string, []> input_41_pad_type_0 = const()[name = tensor<string, []>("input_41_pad_type_0"), val = tensor<string, []>("custom")];
            tensor<int32, [4]> input_41_pad_0 = const()[name = tensor<string, []>("input_41_pad_0"), val = tensor<int32, [4]>([0, 0, 0, 0])];
            tensor<fp16, [128, 128, 1, 1]> image_encoder_model_network_1_proj_1_reparam_conv_weight_to_fp16 = const()[name = tensor<string, []>("image_encoder_model_network_1_proj_1_reparam_conv_weight_to_fp16"), val = tensor<fp16, [128, 128, 1, 1]>(BLOBFILE(path = tensor<string, []>("@model_path/weights/weight.bin"), offset = tensor<uint64, []>(142272)))];
            tensor<fp16, [128]> image_encoder_model_network_1_proj_1_reparam_conv_bias_to_fp16 = const()[name = tensor<string, []>("image_encoder_model_network_1_proj_1_reparam_conv_bias_to_fp16"), val = tensor<fp16, [128]>(BLOBFILE(path = tensor<string, []>("@model_path/weights/weight.bin"), offset = tensor<uint64, []>(175104)))];
            tensor<fp16, [1, 128, 32, 32]> input_41_cast_fp16 = conv(bias = image_encoder_model_network_1_proj_1_reparam_conv_bias_to_fp16, dilations = var_184, groups = var_5, pad = input_41_pad_0, pad_type = input_41_pad_type_0, strides = var_182, weight = image_encoder_model_network_1_proj_1_reparam_conv_weight_to_fp16, x = var_178_cast_fp16)[name = tensor<string, []>("input_41_cast_fp16")];
            tensor<string, []> var_187_mode_0 = const()[name = tensor<string, []>("op_187_mode_0"), val = tensor<string, []>("EXACT")];
            tensor<fp16, [1, 128, 32, 32]> var_187_cast_fp16 = gelu(mode = var_187_mode_0, x = input_41_cast_fp16)[name = tensor<string, []>("op_187_cast_fp16")];
            tensor<int32, [2]> var_200 = const()[name = tensor<string, []>("op_200"), val = tensor<int32, [2]>([1, 1])];
            tensor<int32, [2]> var_202 = const()[name = tensor<string, []>("op_202"), val = tensor<int32, [2]>([1, 1])];
            tensor<string, []> input_47_pad_type_0 = const()[name = tensor<string, []>("input_47_pad_type_0"), val = tensor<string, []>("custom")];
            tensor<int32, [4]> input_47_pad_0 = const()[name = tensor<string, []>("input_47_pad_0"), val = tensor<int32, [4]>([1, 1, 1, 1])];
            tensor<fp16, [128, 1, 3, 3]> image_encoder_model_network_2_0_token_mixer_reparam_conv_weight_to_fp16 = const()[name = tensor<string, []>("image_encoder_model_network_2_0_token_mixer_reparam_conv_weight_to_fp16"), val = tensor<fp16, [128, 1, 3, 3]>(BLOBFILE(path = tensor<string, []>("@model_path/weights/weight.bin"), offset = tensor<uint64, []>(175424)))];
            tensor<fp16, [128]> image_encoder_model_network_2_0_token_mixer_reparam_conv_bias_to_fp16 = const()[name = tensor<string, []>("image_encoder_model_network_2_0_token_mixer_reparam_conv_bias_to_fp16"), val = tensor<fp16, [128]>(BLOBFILE(path = tensor<string, []>("@model_path/weights/weight.bin"), offset = tensor<uint64, []>(177792)))];
            tensor<fp16, [1, 128, 32, 32]> input_47_cast_fp16 = conv(bias = image_encoder_model_network_2_0_token_mixer_reparam_conv_bias_to_fp16, dilations = var_202, groups = var_15, pad = input_47_pad_0, pad_type = input_47_pad_type_0, strides = var_200, weight = image_encoder_model_network_2_0_token_mixer_reparam_conv_weight_to_fp16, x = var_187_cast_fp16)[name = tensor<string, []>("input_47_cast_fp16")];
            tensor<int32, [2]> var_211 = const()[name = tensor<string, []>("op_211"), val = tensor<int32, [2]>([1, 1])];
            tensor<int32, [2]> var_213 = const()[name = tensor<string, []>("op_213"), val = tensor<int32, [2]>([1, 1])];
            tensor<string, []> input_49_pad_type_0 = const()[name = tensor<string, []>("input_49_pad_type_0"), val = tensor<string, []>("custom")];
            tensor<int32, [4]> input_49_pad_0 = const()[name = tensor<string, []>("input_49_pad_0"), val = tensor<int32, [4]>([3, 3, 3, 3])];
            tensor<fp16, [128, 1, 7, 7]> input_51_weight_0_to_fp16 = const()[name = tensor<string, []>("input_51_weight_0_to_fp16"), val = tensor<fp16, [128, 1, 7, 7]>(BLOBFILE(path = tensor<string, []>("@model_path/weights/weight.bin"), offset = tensor<uint64, []>(178112)))];
            tensor<fp16, [128]> input_51_bias_0_to_fp16 = const()[name = tensor<string, []>("input_51_bias_0_to_fp16"), val = tensor<fp16, [128]>(BLOBFILE(path = tensor<string, []>("@model_path/weights/weight.bin"), offset = tensor<uint64, []>(190720)))];
            tensor<fp16, [1, 128, 32, 32]> input_51_cast_fp16 = conv(bias = input_51_bias_0_to_fp16, dilations = var_213, groups = var_15, pad = input_49_pad_0, pad_type = input_49_pad_type_0, strides = var_211, weight = input_51_weight_0_to_fp16, x = input_47_cast_fp16)[name = tensor<string, []>("input_51_cast_fp16")];
            tensor<int32, [2]> var_223 = const()[name = tensor<string, []>("op_223"), val = tensor<int32, [2]>([1, 1])];
            tensor<int32, [2]> var_225 = const()[name = tensor<string, []>("op_225"), val = tensor<int32, [2]>([1, 1])];
            tensor<string, []> input_53_pad_type_0 = const()[name = tensor<string, []>("input_53_pad_type_0"), val = tensor<string, []>("custom")];
            tensor<int32, [4]> input_53_pad_0 = const()[name = tensor<string, []>("input_53_pad_0"), val = tensor<int32, [4]>([0, 0, 0, 0])];
            tensor<fp16, [384, 128, 1, 1]> image_encoder_model_network_2_0_convffn_fc1_weight_to_fp16 = const()[name = tensor<string, []>("image_encoder_model_network_2_0_convffn_fc1_weight_to_fp16"), val = tensor<fp16, [384, 128, 1, 1]>(BLOBFILE(path = tensor<string, []>("@model_path/weights/weight.bin"), offset = tensor<uint64, []>(191040)))];
            tensor<fp16, [384]> image_encoder_model_network_2_0_convffn_fc1_bias_to_fp16 = const()[name = tensor<string, []>("image_encoder_model_network_2_0_convffn_fc1_bias_to_fp16"), val = tensor<fp16, [384]>(BLOBFILE(path = tensor<string, []>("@model_path/weights/weight.bin"), offset = tensor<uint64, []>(289408)))];
            tensor<fp16, [1, 384, 32, 32]> input_53_cast_fp16 = conv(bias = image_encoder_model_network_2_0_convffn_fc1_bias_to_fp16, dilations = var_225, groups = var_5, pad = input_53_pad_0, pad_type = input_53_pad_type_0, strides = var_223, weight = image_encoder_model_network_2_0_convffn_fc1_weight_to_fp16, x = input_51_cast_fp16)[name = tensor<string, []>("input_53_cast_fp16")];
            tensor<string, []> var_228_mode_0 = const()[name = tensor<string, []>("op_228_mode_0"), val = tensor<string, []>("EXACT")];
            tensor<fp16, [1, 384, 32, 32]> var_228_cast_fp16 = gelu(mode = var_228_mode_0, x = input_53_cast_fp16)[name = tensor<string, []>("op_228_cast_fp16")];
            tensor<int32, [2]> var_232 = const()[name = tensor<string, []>("op_232"), val = tensor<int32, [2]>([1, 1])];
            tensor<int32, [2]> var_234 = const()[name = tensor<string, []>("op_234"), val = tensor<int32, [2]>([1, 1])];
            tensor<string, []> input_57_pad_type_0 = const()[name = tensor<string, []>("input_57_pad_type_0"), val = tensor<string, []>("custom")];
            tensor<int32, [4]> input_57_pad_0 = const()[name = tensor<string, []>("input_57_pad_0"), val = tensor<int32, [4]>([0, 0, 0, 0])];
            tensor<fp16, [128, 384, 1, 1]> var_238_weight_0_to_fp16 = const()[name = tensor<string, []>("op_238_weight_0_to_fp16"), val = tensor<fp16, [128, 384, 1, 1]>(BLOBFILE(path = tensor<string, []>("@model_path/weights/weight.bin"), offset = tensor<uint64, []>(290240)))];
            tensor<fp16, [128]> var_238_bias_0_to_fp16 = const()[name = tensor<string, []>("op_238_bias_0_to_fp16"), val = tensor<fp16, [128]>(BLOBFILE(path = tensor<string, []>("@model_path/weights/weight.bin"), offset = tensor<uint64, []>(388608)))];
            tensor<fp16, [1, 128, 32, 32]> var_238_cast_fp16 = conv(bias = var_238_bias_0_to_fp16, dilations = var_234, groups = var_5, pad = input_57_pad_0, pad_type = input_57_pad_type_0, strides = var_232, weight = var_238_weight_0_to_fp16, x = var_228_cast_fp16)[name = tensor<string, []>("op_238_cast_fp16")];
            tensor<fp16, [1, 128, 32, 32]> var_239_cast_fp16 = add(x = input_47_cast_fp16, y = var_238_cast_fp16)[name = tensor<string, []>("op_239_cast_fp16")];
            tensor<int32, [2]> var_246 = const()[name = tensor<string, []>("op_246"), val = tensor<int32, [2]>([1, 1])];
            tensor<int32, [2]> var_248 = const()[name = tensor<string, []>("op_248"), val = tensor<int32, [2]>([1, 1])];
            tensor<string, []> input_59_pad_type_0 = const()[name = tensor<string, []>("input_59_pad_type_0"), val = tensor<string, []>("custom")];
            tensor<int32, [4]> input_59_pad_0 = const()[name = tensor<string, []>("input_59_pad_0"), val = tensor<int32, [4]>([1, 1, 1, 1])];
            tensor<fp16, [128, 1, 3, 3]> image_encoder_model_network_2_1_token_mixer_reparam_conv_weight_to_fp16 = const()[name = tensor<string, []>("image_encoder_model_network_2_1_token_mixer_reparam_conv_weight_to_fp16"), val = tensor<fp16, [128, 1, 3, 3]>(BLOBFILE(path = tensor<string, []>("@model_path/weights/weight.bin"), offset = tensor<uint64, []>(388928)))];
            tensor<fp16, [128]> image_encoder_model_network_2_1_token_mixer_reparam_conv_bias_to_fp16 = const()[name = tensor<string, []>("image_encoder_model_network_2_1_token_mixer_reparam_conv_bias_to_fp16"), val = tensor<fp16, [128]>(BLOBFILE(path = tensor<string, []>("@model_path/weights/weight.bin"), offset = tensor<uint64, []>(391296)))];
            tensor<fp16, [1, 128, 32, 32]> input_59_cast_fp16 = conv(bias = image_encoder_model_network_2_1_token_mixer_reparam_conv_bias_to_fp16, dilations = var_248, groups = var_15, pad = input_59_pad_0, pad_type = input_59_pad_type_0, strides = var_246, weight = image_encoder_model_network_2_1_token_mixer_reparam_conv_weight_to_fp16, x = var_239_cast_fp16)[name = tensor<string, []>("input_59_cast_fp16")];
            tensor<int32, [2]> var_257 = const()[name = tensor<string, []>("op_257"), val = tensor<int32, [2]>([1, 1])];
            tensor<int32, [2]> var_259 = const()[name = tensor<string, []>("op_259"), val = tensor<int32, [2]>([1, 1])];
            tensor<string, []> input_61_pad_type_0 = const()[name = tensor<string, []>("input_61_pad_type_0"), val = tensor<string, []>("custom")];
            tensor<int32, [4]> input_61_pad_0 = const()[name = tensor<string, []>("input_61_pad_0"), val = tensor<int32, [4]>([3, 3, 3, 3])];
            tensor<fp16, [128, 1, 7, 7]> input_63_weight_0_to_fp16 = const()[name = tensor<string, []>("input_63_weight_0_to_fp16"), val = tensor<fp16, [128, 1, 7, 7]>(BLOBFILE(path = tensor<string, []>("@model_path/weights/weight.bin"), offset = tensor<uint64, []>(391616)))];
            tensor<fp16, [128]> input_63_bias_0_to_fp16 = const()[name = tensor<string, []>("input_63_bias_0_to_fp16"), val = tensor<fp16, [128]>(BLOBFILE(path = tensor<string, []>("@model_path/weights/weight.bin"), offset = tensor<uint64, []>(404224)))];
            tensor<fp16, [1, 128, 32, 32]> input_63_cast_fp16 = conv(bias = input_63_bias_0_to_fp16, dilations = var_259, groups = var_15, pad = input_61_pad_0, pad_type = input_61_pad_type_0, strides = var_257, weight = input_63_weight_0_to_fp16, x = input_59_cast_fp16)[name = tensor<string, []>("input_63_cast_fp16")];
            tensor<int32, [2]> var_269 = const()[name = tensor<string, []>("op_269"), val = tensor<int32, [2]>([1, 1])];
            tensor<int32, [2]> var_271 = const()[name = tensor<string, []>("op_271"), val = tensor<int32, [2]>([1, 1])];
            tensor<string, []> input_65_pad_type_0 = const()[name = tensor<string, []>("input_65_pad_type_0"), val = tensor<string, []>("custom")];
            tensor<int32, [4]> input_65_pad_0 = const()[name = tensor<string, []>("input_65_pad_0"), val = tensor<int32, [4]>([0, 0, 0, 0])];
            tensor<fp16, [384, 128, 1, 1]> image_encoder_model_network_2_1_convffn_fc1_weight_to_fp16 = const()[name = tensor<string, []>("image_encoder_model_network_2_1_convffn_fc1_weight_to_fp16"), val = tensor<fp16, [384, 128, 1, 1]>(BLOBFILE(path = tensor<string, []>("@model_path/weights/weight.bin"), offset = tensor<uint64, []>(404544)))];
            tensor<fp16, [384]> image_encoder_model_network_2_1_convffn_fc1_bias_to_fp16 = const()[name = tensor<string, []>("image_encoder_model_network_2_1_convffn_fc1_bias_to_fp16"), val = tensor<fp16, [384]>(BLOBFILE(path = tensor<string, []>("@model_path/weights/weight.bin"), offset = tensor<uint64, []>(502912)))];
            tensor<fp16, [1, 384, 32, 32]> input_65_cast_fp16 = conv(bias = image_encoder_model_network_2_1_convffn_fc1_bias_to_fp16, dilations = var_271, groups = var_5, pad = input_65_pad_0, pad_type = input_65_pad_type_0, strides = var_269, weight = image_encoder_model_network_2_1_convffn_fc1_weight_to_fp16, x = input_63_cast_fp16)[name = tensor<string, []>("input_65_cast_fp16")];
            tensor<string, []> var_274_mode_0 = const()[name = tensor<string, []>("op_274_mode_0"), val = tensor<string, []>("EXACT")];
            tensor<fp16, [1, 384, 32, 32]> var_274_cast_fp16 = gelu(mode = var_274_mode_0, x = input_65_cast_fp16)[name = tensor<string, []>("op_274_cast_fp16")];
            tensor<int32, [2]> var_278 = const()[name = tensor<string, []>("op_278"), val = tensor<int32, [2]>([1, 1])];
            tensor<int32, [2]> var_280 = const()[name = tensor<string, []>("op_280"), val = tensor<int32, [2]>([1, 1])];
            tensor<string, []> input_69_pad_type_0 = const()[name = tensor<string, []>("input_69_pad_type_0"), val = tensor<string, []>("custom")];
            tensor<int32, [4]> input_69_pad_0 = const()[name = tensor<string, []>("input_69_pad_0"), val = tensor<int32, [4]>([0, 0, 0, 0])];
            tensor<fp16, [128, 384, 1, 1]> var_284_weight_0_to_fp16 = const()[name = tensor<string, []>("op_284_weight_0_to_fp16"), val = tensor<fp16, [128, 384, 1, 1]>(BLOBFILE(path = tensor<string, []>("@model_path/weights/weight.bin"), offset = tensor<uint64, []>(503744)))];
            tensor<fp16, [128]> var_284_bias_0_to_fp16 = const()[name = tensor<string, []>("op_284_bias_0_to_fp16"), val = tensor<fp16, [128]>(BLOBFILE(path = tensor<string, []>("@model_path/weights/weight.bin"), offset = tensor<uint64, []>(602112)))];
            tensor<fp16, [1, 128, 32, 32]> var_284_cast_fp16 = conv(bias = var_284_bias_0_to_fp16, dilations = var_280, groups = var_5, pad = input_69_pad_0, pad_type = input_69_pad_type_0, strides = var_278, weight = var_284_weight_0_to_fp16, x = var_274_cast_fp16)[name = tensor<string, []>("op_284_cast_fp16")];
            tensor<fp16, [1, 128, 32, 32]> var_285_cast_fp16 = add(x = input_59_cast_fp16, y = var_284_cast_fp16)[name = tensor<string, []>("op_285_cast_fp16")];
            tensor<int32, [2]> var_292 = const()[name = tensor<string, []>("op_292"), val = tensor<int32, [2]>([1, 1])];
            tensor<int32, [2]> var_294 = const()[name = tensor<string, []>("op_294"), val = tensor<int32, [2]>([1, 1])];
            tensor<string, []> input_71_pad_type_0 = const()[name = tensor<string, []>("input_71_pad_type_0"), val = tensor<string, []>("custom")];
            tensor<int32, [4]> input_71_pad_0 = const()[name = tensor<string, []>("input_71_pad_0"), val = tensor<int32, [4]>([1, 1, 1, 1])];
            tensor<fp16, [128, 1, 3, 3]> image_encoder_model_network_2_2_token_mixer_reparam_conv_weight_to_fp16 = const()[name = tensor<string, []>("image_encoder_model_network_2_2_token_mixer_reparam_conv_weight_to_fp16"), val = tensor<fp16, [128, 1, 3, 3]>(BLOBFILE(path = tensor<string, []>("@model_path/weights/weight.bin"), offset = tensor<uint64, []>(602432)))];
            tensor<fp16, [128]> image_encoder_model_network_2_2_token_mixer_reparam_conv_bias_to_fp16 = const()[name = tensor<string, []>("image_encoder_model_network_2_2_token_mixer_reparam_conv_bias_to_fp16"), val = tensor<fp16, [128]>(BLOBFILE(path = tensor<string, []>("@model_path/weights/weight.bin"), offset = tensor<uint64, []>(604800)))];
            tensor<fp16, [1, 128, 32, 32]> input_71_cast_fp16 = conv(bias = image_encoder_model_network_2_2_token_mixer_reparam_conv_bias_to_fp16, dilations = var_294, groups = var_15, pad = input_71_pad_0, pad_type = input_71_pad_type_0, strides = var_292, weight = image_encoder_model_network_2_2_token_mixer_reparam_conv_weight_to_fp16, x = var_285_cast_fp16)[name = tensor<string, []>("input_71_cast_fp16")];
            tensor<int32, [2]> var_303 = const()[name = tensor<string, []>("op_303"), val = tensor<int32, [2]>([1, 1])];
            tensor<int32, [2]> var_305 = const()[name = tensor<string, []>("op_305"), val = tensor<int32, [2]>([1, 1])];
            tensor<string, []> input_73_pad_type_0 = const()[name = tensor<string, []>("input_73_pad_type_0"), val = tensor<string, []>("custom")];
            tensor<int32, [4]> input_73_pad_0 = const()[name = tensor<string, []>("input_73_pad_0"), val = tensor<int32, [4]>([3, 3, 3, 3])];
            tensor<fp16, [128, 1, 7, 7]> input_75_weight_0_to_fp16 = const()[name = tensor<string, []>("input_75_weight_0_to_fp16"), val = tensor<fp16, [128, 1, 7, 7]>(BLOBFILE(path = tensor<string, []>("@model_path/weights/weight.bin"), offset = tensor<uint64, []>(605120)))];
            tensor<fp16, [128]> input_75_bias_0_to_fp16 = const()[name = tensor<string, []>("input_75_bias_0_to_fp16"), val = tensor<fp16, [128]>(BLOBFILE(path = tensor<string, []>("@model_path/weights/weight.bin"), offset = tensor<uint64, []>(617728)))];
            tensor<fp16, [1, 128, 32, 32]> input_75_cast_fp16 = conv(bias = input_75_bias_0_to_fp16, dilations = var_305, groups = var_15, pad = input_73_pad_0, pad_type = input_73_pad_type_0, strides = var_303, weight = input_75_weight_0_to_fp16, x = input_71_cast_fp16)[name = tensor<string, []>("input_75_cast_fp16")];
            tensor<int32, [2]> var_315 = const()[name = tensor<string, []>("op_315"), val = tensor<int32, [2]>([1, 1])];
            tensor<int32, [2]> var_317 = const()[name = tensor<string, []>("op_317"), val = tensor<int32, [2]>([1, 1])];
            tensor<string, []> input_77_pad_type_0 = const()[name = tensor<string, []>("input_77_pad_type_0"), val = tensor<string, []>("custom")];
            tensor<int32, [4]> input_77_pad_0 = const()[name = tensor<string, []>("input_77_pad_0"), val = tensor<int32, [4]>([0, 0, 0, 0])];
            tensor<fp16, [384, 128, 1, 1]> image_encoder_model_network_2_2_convffn_fc1_weight_to_fp16 = const()[name = tensor<string, []>("image_encoder_model_network_2_2_convffn_fc1_weight_to_fp16"), val = tensor<fp16, [384, 128, 1, 1]>(BLOBFILE(path = tensor<string, []>("@model_path/weights/weight.bin"), offset = tensor<uint64, []>(618048)))];
            tensor<fp16, [384]> image_encoder_model_network_2_2_convffn_fc1_bias_to_fp16 = const()[name = tensor<string, []>("image_encoder_model_network_2_2_convffn_fc1_bias_to_fp16"), val = tensor<fp16, [384]>(BLOBFILE(path = tensor<string, []>("@model_path/weights/weight.bin"), offset = tensor<uint64, []>(716416)))];
            tensor<fp16, [1, 384, 32, 32]> input_77_cast_fp16 = conv(bias = image_encoder_model_network_2_2_convffn_fc1_bias_to_fp16, dilations = var_317, groups = var_5, pad = input_77_pad_0, pad_type = input_77_pad_type_0, strides = var_315, weight = image_encoder_model_network_2_2_convffn_fc1_weight_to_fp16, x = input_75_cast_fp16)[name = tensor<string, []>("input_77_cast_fp16")];
            tensor<string, []> var_320_mode_0 = const()[name = tensor<string, []>("op_320_mode_0"), val = tensor<string, []>("EXACT")];
            tensor<fp16, [1, 384, 32, 32]> var_320_cast_fp16 = gelu(mode = var_320_mode_0, x = input_77_cast_fp16)[name = tensor<string, []>("op_320_cast_fp16")];
            tensor<int32, [2]> var_324 = const()[name = tensor<string, []>("op_324"), val = tensor<int32, [2]>([1, 1])];
            tensor<int32, [2]> var_326 = const()[name = tensor<string, []>("op_326"), val = tensor<int32, [2]>([1, 1])];
            tensor<string, []> input_81_pad_type_0 = const()[name = tensor<string, []>("input_81_pad_type_0"), val = tensor<string, []>("custom")];
            tensor<int32, [4]> input_81_pad_0 = const()[name = tensor<string, []>("input_81_pad_0"), val = tensor<int32, [4]>([0, 0, 0, 0])];
            tensor<fp16, [128, 384, 1, 1]> var_330_weight_0_to_fp16 = const()[name = tensor<string, []>("op_330_weight_0_to_fp16"), val = tensor<fp16, [128, 384, 1, 1]>(BLOBFILE(path = tensor<string, []>("@model_path/weights/weight.bin"), offset = tensor<uint64, []>(717248)))];
            tensor<fp16, [128]> var_330_bias_0_to_fp16 = const()[name = tensor<string, []>("op_330_bias_0_to_fp16"), val = tensor<fp16, [128]>(BLOBFILE(path = tensor<string, []>("@model_path/weights/weight.bin"), offset = tensor<uint64, []>(815616)))];
            tensor<fp16, [1, 128, 32, 32]> var_330_cast_fp16 = conv(bias = var_330_bias_0_to_fp16, dilations = var_326, groups = var_5, pad = input_81_pad_0, pad_type = input_81_pad_type_0, strides = var_324, weight = var_330_weight_0_to_fp16, x = var_320_cast_fp16)[name = tensor<string, []>("op_330_cast_fp16")];
            tensor<fp16, [1, 128, 32, 32]> var_331_cast_fp16 = add(x = input_71_cast_fp16, y = var_330_cast_fp16)[name = tensor<string, []>("op_331_cast_fp16")];
            tensor<int32, [2]> var_338 = const()[name = tensor<string, []>("op_338"), val = tensor<int32, [2]>([1, 1])];
            tensor<int32, [2]> var_340 = const()[name = tensor<string, []>("op_340"), val = tensor<int32, [2]>([1, 1])];
            tensor<string, []> input_83_pad_type_0 = const()[name = tensor<string, []>("input_83_pad_type_0"), val = tensor<string, []>("custom")];
            tensor<int32, [4]> input_83_pad_0 = const()[name = tensor<string, []>("input_83_pad_0"), val = tensor<int32, [4]>([1, 1, 1, 1])];
            tensor<fp16, [128, 1, 3, 3]> image_encoder_model_network_2_3_token_mixer_reparam_conv_weight_to_fp16 = const()[name = tensor<string, []>("image_encoder_model_network_2_3_token_mixer_reparam_conv_weight_to_fp16"), val = tensor<fp16, [128, 1, 3, 3]>(BLOBFILE(path = tensor<string, []>("@model_path/weights/weight.bin"), offset = tensor<uint64, []>(815936)))];
            tensor<fp16, [128]> image_encoder_model_network_2_3_token_mixer_reparam_conv_bias_to_fp16 = const()[name = tensor<string, []>("image_encoder_model_network_2_3_token_mixer_reparam_conv_bias_to_fp16"), val = tensor<fp16, [128]>(BLOBFILE(path = tensor<string, []>("@model_path/weights/weight.bin"), offset = tensor<uint64, []>(818304)))];
            tensor<fp16, [1, 128, 32, 32]> input_83_cast_fp16 = conv(bias = image_encoder_model_network_2_3_token_mixer_reparam_conv_bias_to_fp16, dilations = var_340, groups = var_15, pad = input_83_pad_0, pad_type = input_83_pad_type_0, strides = var_338, weight = image_encoder_model_network_2_3_token_mixer_reparam_conv_weight_to_fp16, x = var_331_cast_fp16)[name = tensor<string, []>("input_83_cast_fp16")];
            tensor<int32, [2]> var_349 = const()[name = tensor<string, []>("op_349"), val = tensor<int32, [2]>([1, 1])];
            tensor<int32, [2]> var_351 = const()[name = tensor<string, []>("op_351"), val = tensor<int32, [2]>([1, 1])];
            tensor<string, []> input_85_pad_type_0 = const()[name = tensor<string, []>("input_85_pad_type_0"), val = tensor<string, []>("custom")];
            tensor<int32, [4]> input_85_pad_0 = const()[name = tensor<string, []>("input_85_pad_0"), val = tensor<int32, [4]>([3, 3, 3, 3])];
            tensor<fp16, [128, 1, 7, 7]> input_87_weight_0_to_fp16 = const()[name = tensor<string, []>("input_87_weight_0_to_fp16"), val = tensor<fp16, [128, 1, 7, 7]>(BLOBFILE(path = tensor<string, []>("@model_path/weights/weight.bin"), offset = tensor<uint64, []>(818624)))];
            tensor<fp16, [128]> input_87_bias_0_to_fp16 = const()[name = tensor<string, []>("input_87_bias_0_to_fp16"), val = tensor<fp16, [128]>(BLOBFILE(path = tensor<string, []>("@model_path/weights/weight.bin"), offset = tensor<uint64, []>(831232)))];
            tensor<fp16, [1, 128, 32, 32]> input_87_cast_fp16 = conv(bias = input_87_bias_0_to_fp16, dilations = var_351, groups = var_15, pad = input_85_pad_0, pad_type = input_85_pad_type_0, strides = var_349, weight = input_87_weight_0_to_fp16, x = input_83_cast_fp16)[name = tensor<string, []>("input_87_cast_fp16")];
            tensor<int32, [2]> var_361 = const()[name = tensor<string, []>("op_361"), val = tensor<int32, [2]>([1, 1])];
            tensor<int32, [2]> var_363 = const()[name = tensor<string, []>("op_363"), val = tensor<int32, [2]>([1, 1])];
            tensor<string, []> input_89_pad_type_0 = const()[name = tensor<string, []>("input_89_pad_type_0"), val = tensor<string, []>("custom")];
            tensor<int32, [4]> input_89_pad_0 = const()[name = tensor<string, []>("input_89_pad_0"), val = tensor<int32, [4]>([0, 0, 0, 0])];
            tensor<fp16, [384, 128, 1, 1]> image_encoder_model_network_2_3_convffn_fc1_weight_to_fp16 = const()[name = tensor<string, []>("image_encoder_model_network_2_3_convffn_fc1_weight_to_fp16"), val = tensor<fp16, [384, 128, 1, 1]>(BLOBFILE(path = tensor<string, []>("@model_path/weights/weight.bin"), offset = tensor<uint64, []>(831552)))];
            tensor<fp16, [384]> image_encoder_model_network_2_3_convffn_fc1_bias_to_fp16 = const()[name = tensor<string, []>("image_encoder_model_network_2_3_convffn_fc1_bias_to_fp16"), val = tensor<fp16, [384]>(BLOBFILE(path = tensor<string, []>("@model_path/weights/weight.bin"), offset = tensor<uint64, []>(929920)))];
            tensor<fp16, [1, 384, 32, 32]> input_89_cast_fp16 = conv(bias = image_encoder_model_network_2_3_convffn_fc1_bias_to_fp16, dilations = var_363, groups = var_5, pad = input_89_pad_0, pad_type = input_89_pad_type_0, strides = var_361, weight = image_encoder_model_network_2_3_convffn_fc1_weight_to_fp16, x = input_87_cast_fp16)[name = tensor<string, []>("input_89_cast_fp16")];
            tensor<string, []> var_366_mode_0 = const()[name = tensor<string, []>("op_366_mode_0"), val = tensor<string, []>("EXACT")];
            tensor<fp16, [1, 384, 32, 32]> var_366_cast_fp16 = gelu(mode = var_366_mode_0, x = input_89_cast_fp16)[name = tensor<string, []>("op_366_cast_fp16")];
            tensor<int32, [2]> var_370 = const()[name = tensor<string, []>("op_370"), val = tensor<int32, [2]>([1, 1])];
            tensor<int32, [2]> var_372 = const()[name = tensor<string, []>("op_372"), val = tensor<int32, [2]>([1, 1])];
            tensor<string, []> input_93_pad_type_0 = const()[name = tensor<string, []>("input_93_pad_type_0"), val = tensor<string, []>("custom")];
            tensor<int32, [4]> input_93_pad_0 = const()[name = tensor<string, []>("input_93_pad_0"), val = tensor<int32, [4]>([0, 0, 0, 0])];
            tensor<fp16, [128, 384, 1, 1]> var_376_weight_0_to_fp16 = const()[name = tensor<string, []>("op_376_weight_0_to_fp16"), val = tensor<fp16, [128, 384, 1, 1]>(BLOBFILE(path = tensor<string, []>("@model_path/weights/weight.bin"), offset = tensor<uint64, []>(930752)))];
            tensor<fp16, [128]> var_376_bias_0_to_fp16 = const()[name = tensor<string, []>("op_376_bias_0_to_fp16"), val = tensor<fp16, [128]>(BLOBFILE(path = tensor<string, []>("@model_path/weights/weight.bin"), offset = tensor<uint64, []>(1029120)))];
            tensor<fp16, [1, 128, 32, 32]> var_376_cast_fp16 = conv(bias = var_376_bias_0_to_fp16, dilations = var_372, groups = var_5, pad = input_93_pad_0, pad_type = input_93_pad_type_0, strides = var_370, weight = var_376_weight_0_to_fp16, x = var_366_cast_fp16)[name = tensor<string, []>("op_376_cast_fp16")];
            tensor<fp16, [1, 128, 32, 32]> var_377_cast_fp16 = add(x = input_83_cast_fp16, y = var_376_cast_fp16)[name = tensor<string, []>("op_377_cast_fp16")];
            tensor<int32, [2]> var_384 = const()[name = tensor<string, []>("op_384"), val = tensor<int32, [2]>([1, 1])];
            tensor<int32, [2]> var_386 = const()[name = tensor<string, []>("op_386"), val = tensor<int32, [2]>([1, 1])];
            tensor<string, []> input_95_pad_type_0 = const()[name = tensor<string, []>("input_95_pad_type_0"), val = tensor<string, []>("custom")];
            tensor<int32, [4]> input_95_pad_0 = const()[name = tensor<string, []>("input_95_pad_0"), val = tensor<int32, [4]>([1, 1, 1, 1])];
            tensor<fp16, [128, 1, 3, 3]> image_encoder_model_network_2_4_token_mixer_reparam_conv_weight_to_fp16 = const()[name = tensor<string, []>("image_encoder_model_network_2_4_token_mixer_reparam_conv_weight_to_fp16"), val = tensor<fp16, [128, 1, 3, 3]>(BLOBFILE(path = tensor<string, []>("@model_path/weights/weight.bin"), offset = tensor<uint64, []>(1029440)))];
            tensor<fp16, [128]> image_encoder_model_network_2_4_token_mixer_reparam_conv_bias_to_fp16 = const()[name = tensor<string, []>("image_encoder_model_network_2_4_token_mixer_reparam_conv_bias_to_fp16"), val = tensor<fp16, [128]>(BLOBFILE(path = tensor<string, []>("@model_path/weights/weight.bin"), offset = tensor<uint64, []>(1031808)))];
            tensor<fp16, [1, 128, 32, 32]> input_95_cast_fp16 = conv(bias = image_encoder_model_network_2_4_token_mixer_reparam_conv_bias_to_fp16, dilations = var_386, groups = var_15, pad = input_95_pad_0, pad_type = input_95_pad_type_0, strides = var_384, weight = image_encoder_model_network_2_4_token_mixer_reparam_conv_weight_to_fp16, x = var_377_cast_fp16)[name = tensor<string, []>("input_95_cast_fp16")];
            tensor<int32, [2]> var_395 = const()[name = tensor<string, []>("op_395"), val = tensor<int32, [2]>([1, 1])];
            tensor<int32, [2]> var_397 = const()[name = tensor<string, []>("op_397"), val = tensor<int32, [2]>([1, 1])];
            tensor<string, []> input_97_pad_type_0 = const()[name = tensor<string, []>("input_97_pad_type_0"), val = tensor<string, []>("custom")];
            tensor<int32, [4]> input_97_pad_0 = const()[name = tensor<string, []>("input_97_pad_0"), val = tensor<int32, [4]>([3, 3, 3, 3])];
            tensor<fp16, [128, 1, 7, 7]> input_99_weight_0_to_fp16 = const()[name = tensor<string, []>("input_99_weight_0_to_fp16"), val = tensor<fp16, [128, 1, 7, 7]>(BLOBFILE(path = tensor<string, []>("@model_path/weights/weight.bin"), offset = tensor<uint64, []>(1032128)))];
            tensor<fp16, [128]> input_99_bias_0_to_fp16 = const()[name = tensor<string, []>("input_99_bias_0_to_fp16"), val = tensor<fp16, [128]>(BLOBFILE(path = tensor<string, []>("@model_path/weights/weight.bin"), offset = tensor<uint64, []>(1044736)))];
            tensor<fp16, [1, 128, 32, 32]> input_99_cast_fp16 = conv(bias = input_99_bias_0_to_fp16, dilations = var_397, groups = var_15, pad = input_97_pad_0, pad_type = input_97_pad_type_0, strides = var_395, weight = input_99_weight_0_to_fp16, x = input_95_cast_fp16)[name = tensor<string, []>("input_99_cast_fp16")];
            tensor<int32, [2]> var_407 = const()[name = tensor<string, []>("op_407"), val = tensor<int32, [2]>([1, 1])];
            tensor<int32, [2]> var_409 = const()[name = tensor<string, []>("op_409"), val = tensor<int32, [2]>([1, 1])];
            tensor<string, []> input_101_pad_type_0 = const()[name = tensor<string, []>("input_101_pad_type_0"), val = tensor<string, []>("custom")];
            tensor<int32, [4]> input_101_pad_0 = const()[name = tensor<string, []>("input_101_pad_0"), val = tensor<int32, [4]>([0, 0, 0, 0])];
            tensor<fp16, [384, 128, 1, 1]> image_encoder_model_network_2_4_convffn_fc1_weight_to_fp16 = const()[name = tensor<string, []>("image_encoder_model_network_2_4_convffn_fc1_weight_to_fp16"), val = tensor<fp16, [384, 128, 1, 1]>(BLOBFILE(path = tensor<string, []>("@model_path/weights/weight.bin"), offset = tensor<uint64, []>(1045056)))];
            tensor<fp16, [384]> image_encoder_model_network_2_4_convffn_fc1_bias_to_fp16 = const()[name = tensor<string, []>("image_encoder_model_network_2_4_convffn_fc1_bias_to_fp16"), val = tensor<fp16, [384]>(BLOBFILE(path = tensor<string, []>("@model_path/weights/weight.bin"), offset = tensor<uint64, []>(1143424)))];
            tensor<fp16, [1, 384, 32, 32]> input_101_cast_fp16 = conv(bias = image_encoder_model_network_2_4_convffn_fc1_bias_to_fp16, dilations = var_409, groups = var_5, pad = input_101_pad_0, pad_type = input_101_pad_type_0, strides = var_407, weight = image_encoder_model_network_2_4_convffn_fc1_weight_to_fp16, x = input_99_cast_fp16)[name = tensor<string, []>("input_101_cast_fp16")];
            tensor<string, []> var_412_mode_0 = const()[name = tensor<string, []>("op_412_mode_0"), val = tensor<string, []>("EXACT")];
            tensor<fp16, [1, 384, 32, 32]> var_412_cast_fp16 = gelu(mode = var_412_mode_0, x = input_101_cast_fp16)[name = tensor<string, []>("op_412_cast_fp16")];
            tensor<int32, [2]> var_416 = const()[name = tensor<string, []>("op_416"), val = tensor<int32, [2]>([1, 1])];
            tensor<int32, [2]> var_418 = const()[name = tensor<string, []>("op_418"), val = tensor<int32, [2]>([1, 1])];
            tensor<string, []> input_105_pad_type_0 = const()[name = tensor<string, []>("input_105_pad_type_0"), val = tensor<string, []>("custom")];
            tensor<int32, [4]> input_105_pad_0 = const()[name = tensor<string, []>("input_105_pad_0"), val = tensor<int32, [4]>([0, 0, 0, 0])];
            tensor<fp16, [128, 384, 1, 1]> var_422_weight_0_to_fp16 = const()[name = tensor<string, []>("op_422_weight_0_to_fp16"), val = tensor<fp16, [128, 384, 1, 1]>(BLOBFILE(path = tensor<string, []>("@model_path/weights/weight.bin"), offset = tensor<uint64, []>(1144256)))];
            tensor<fp16, [128]> var_422_bias_0_to_fp16 = const()[name = tensor<string, []>("op_422_bias_0_to_fp16"), val = tensor<fp16, [128]>(BLOBFILE(path = tensor<string, []>("@model_path/weights/weight.bin"), offset = tensor<uint64, []>(1242624)))];
            tensor<fp16, [1, 128, 32, 32]> var_422_cast_fp16 = conv(bias = var_422_bias_0_to_fp16, dilations = var_418, groups = var_5, pad = input_105_pad_0, pad_type = input_105_pad_type_0, strides = var_416, weight = var_422_weight_0_to_fp16, x = var_412_cast_fp16)[name = tensor<string, []>("op_422_cast_fp16")];
            tensor<fp16, [1, 128, 32, 32]> var_423_cast_fp16 = add(x = input_95_cast_fp16, y = var_422_cast_fp16)[name = tensor<string, []>("op_423_cast_fp16")];
            tensor<int32, [2]> var_430 = const()[name = tensor<string, []>("op_430"), val = tensor<int32, [2]>([1, 1])];
            tensor<int32, [2]> var_432 = const()[name = tensor<string, []>("op_432"), val = tensor<int32, [2]>([1, 1])];
            tensor<string, []> input_107_pad_type_0 = const()[name = tensor<string, []>("input_107_pad_type_0"), val = tensor<string, []>("custom")];
            tensor<int32, [4]> input_107_pad_0 = const()[name = tensor<string, []>("input_107_pad_0"), val = tensor<int32, [4]>([1, 1, 1, 1])];
            tensor<fp16, [128, 1, 3, 3]> image_encoder_model_network_2_5_token_mixer_reparam_conv_weight_to_fp16 = const()[name = tensor<string, []>("image_encoder_model_network_2_5_token_mixer_reparam_conv_weight_to_fp16"), val = tensor<fp16, [128, 1, 3, 3]>(BLOBFILE(path = tensor<string, []>("@model_path/weights/weight.bin"), offset = tensor<uint64, []>(1242944)))];
            tensor<fp16, [128]> image_encoder_model_network_2_5_token_mixer_reparam_conv_bias_to_fp16 = const()[name = tensor<string, []>("image_encoder_model_network_2_5_token_mixer_reparam_conv_bias_to_fp16"), val = tensor<fp16, [128]>(BLOBFILE(path = tensor<string, []>("@model_path/weights/weight.bin"), offset = tensor<uint64, []>(1245312)))];
            tensor<fp16, [1, 128, 32, 32]> input_107_cast_fp16 = conv(bias = image_encoder_model_network_2_5_token_mixer_reparam_conv_bias_to_fp16, dilations = var_432, groups = var_15, pad = input_107_pad_0, pad_type = input_107_pad_type_0, strides = var_430, weight = image_encoder_model_network_2_5_token_mixer_reparam_conv_weight_to_fp16, x = var_423_cast_fp16)[name = tensor<string, []>("input_107_cast_fp16")];
            tensor<int32, [2]> var_441 = const()[name = tensor<string, []>("op_441"), val = tensor<int32, [2]>([1, 1])];
            tensor<int32, [2]> var_443 = const()[name = tensor<string, []>("op_443"), val = tensor<int32, [2]>([1, 1])];
            tensor<string, []> input_43_pad_type_0 = const()[name = tensor<string, []>("input_43_pad_type_0"), val = tensor<string, []>("custom")];
            tensor<int32, [4]> input_43_pad_0 = const()[name = tensor<string, []>("input_43_pad_0"), val = tensor<int32, [4]>([3, 3, 3, 3])];
            tensor<fp16, [128, 1, 7, 7]> input_111_weight_0_to_fp16 = const()[name = tensor<string, []>("input_111_weight_0_to_fp16"), val = tensor<fp16, [128, 1, 7, 7]>(BLOBFILE(path = tensor<string, []>("@model_path/weights/weight.bin"), offset = tensor<uint64, []>(1245632)))];
            tensor<fp16, [128]> input_111_bias_0_to_fp16 = const()[name = tensor<string, []>("input_111_bias_0_to_fp16"), val = tensor<fp16, [128]>(BLOBFILE(path = tensor<string, []>("@model_path/weights/weight.bin"), offset = tensor<uint64, []>(1258240)))];
            tensor<fp16, [1, 128, 32, 32]> input_111_cast_fp16 = conv(bias = input_111_bias_0_to_fp16, dilations = var_443, groups = var_15, pad = input_43_pad_0, pad_type = input_43_pad_type_0, strides = var_441, weight = input_111_weight_0_to_fp16, x = input_107_cast_fp16)[name = tensor<string, []>("input_111_cast_fp16")];
            tensor<int32, [2]> var_453 = const()[name = tensor<string, []>("op_453"), val = tensor<int32, [2]>([1, 1])];
            tensor<int32, [2]> var_455 = const()[name = tensor<string, []>("op_455"), val = tensor<int32, [2]>([1, 1])];
            tensor<string, []> input_113_pad_type_0 = const()[name = tensor<string, []>("input_113_pad_type_0"), val = tensor<string, []>("custom")];
            tensor<int32, [4]> input_113_pad_0 = const()[name = tensor<string, []>("input_113_pad_0"), val = tensor<int32, [4]>([0, 0, 0, 0])];
            tensor<fp16, [384, 128, 1, 1]> image_encoder_model_network_2_5_convffn_fc1_weight_to_fp16 = const()[name = tensor<string, []>("image_encoder_model_network_2_5_convffn_fc1_weight_to_fp16"), val = tensor<fp16, [384, 128, 1, 1]>(BLOBFILE(path = tensor<string, []>("@model_path/weights/weight.bin"), offset = tensor<uint64, []>(1258560)))];
            tensor<fp16, [384]> image_encoder_model_network_2_5_convffn_fc1_bias_to_fp16 = const()[name = tensor<string, []>("image_encoder_model_network_2_5_convffn_fc1_bias_to_fp16"), val = tensor<fp16, [384]>(BLOBFILE(path = tensor<string, []>("@model_path/weights/weight.bin"), offset = tensor<uint64, []>(1356928)))];
            tensor<fp16, [1, 384, 32, 32]> input_113_cast_fp16 = conv(bias = image_encoder_model_network_2_5_convffn_fc1_bias_to_fp16, dilations = var_455, groups = var_5, pad = input_113_pad_0, pad_type = input_113_pad_type_0, strides = var_453, weight = image_encoder_model_network_2_5_convffn_fc1_weight_to_fp16, x = input_111_cast_fp16)[name = tensor<string, []>("input_113_cast_fp16")];
            tensor<string, []> var_458_mode_0 = const()[name = tensor<string, []>("op_458_mode_0"), val = tensor<string, []>("EXACT")];
            tensor<fp16, [1, 384, 32, 32]> var_458_cast_fp16 = gelu(mode = var_458_mode_0, x = input_113_cast_fp16)[name = tensor<string, []>("op_458_cast_fp16")];
            tensor<int32, [2]> var_462 = const()[name = tensor<string, []>("op_462"), val = tensor<int32, [2]>([1, 1])];
            tensor<int32, [2]> var_464 = const()[name = tensor<string, []>("op_464"), val = tensor<int32, [2]>([1, 1])];
            tensor<string, []> input_45_pad_type_0 = const()[name = tensor<string, []>("input_45_pad_type_0"), val = tensor<string, []>("custom")];
            tensor<int32, [4]> input_45_pad_0 = const()[name = tensor<string, []>("input_45_pad_0"), val = tensor<int32, [4]>([0, 0, 0, 0])];
            tensor<fp16, [128, 384, 1, 1]> var_468_weight_0_to_fp16 = const()[name = tensor<string, []>("op_468_weight_0_to_fp16"), val = tensor<fp16, [128, 384, 1, 1]>(BLOBFILE(path = tensor<string, []>("@model_path/weights/weight.bin"), offset = tensor<uint64, []>(1357760)))];
            tensor<fp16, [128]> var_468_bias_0_to_fp16 = const()[name = tensor<string, []>("op_468_bias_0_to_fp16"), val = tensor<fp16, [128]>(BLOBFILE(path = tensor<string, []>("@model_path/weights/weight.bin"), offset = tensor<uint64, []>(1456128)))];
            tensor<fp16, [1, 128, 32, 32]> var_468_cast_fp16 = conv(bias = var_468_bias_0_to_fp16, dilations = var_464, groups = var_5, pad = input_45_pad_0, pad_type = input_45_pad_type_0, strides = var_462, weight = var_468_weight_0_to_fp16, x = var_458_cast_fp16)[name = tensor<string, []>("op_468_cast_fp16")];
            tensor<fp16, [1, 128, 32, 32]> var_469_cast_fp16 = add(x = input_107_cast_fp16, y = var_468_cast_fp16)[name = tensor<string, []>("op_469_cast_fp16")];
            tensor<int32, [2]> var_477 = const()[name = tensor<string, []>("op_477"), val = tensor<int32, [2]>([2, 2])];
            tensor<int32, [2]> var_479 = const()[name = tensor<string, []>("op_479"), val = tensor<int32, [2]>([1, 1])];
            tensor<string, []> x_7_pad_type_0 = const()[name = tensor<string, []>("x_7_pad_type_0"), val = tensor<string, []>("custom")];
            tensor<int32, [4]> x_7_pad_0 = const()[name = tensor<string, []>("x_7_pad_0"), val = tensor<int32, [4]>([3, 3, 3, 3])];
            tensor<fp16, [256, 1, 7, 7]> image_encoder_model_network_3_proj_0_lkb_reparam_weight_to_fp16 = const()[name = tensor<string, []>("image_encoder_model_network_3_proj_0_lkb_reparam_weight_to_fp16"), val = tensor<fp16, [256, 1, 7, 7]>(BLOBFILE(path = tensor<string, []>("@model_path/weights/weight.bin"), offset = tensor<uint64, []>(1456448)))];
            tensor<fp16, [256]> image_encoder_model_network_3_proj_0_lkb_reparam_bias_to_fp16 = const()[name = tensor<string, []>("image_encoder_model_network_3_proj_0_lkb_reparam_bias_to_fp16"), val = tensor<fp16, [256]>(BLOBFILE(path = tensor<string, []>("@model_path/weights/weight.bin"), offset = tensor<uint64, []>(1481600)))];
            tensor<fp16, [1, 256, 16, 16]> x_7_cast_fp16 = conv(bias = image_encoder_model_network_3_proj_0_lkb_reparam_bias_to_fp16, dilations = var_479, groups = var_15, pad = x_7_pad_0, pad_type = x_7_pad_type_0, strides = var_477, weight = image_encoder_model_network_3_proj_0_lkb_reparam_weight_to_fp16, x = var_469_cast_fp16)[name = tensor<string, []>("x_7_cast_fp16")];
            tensor<int32, [2]> var_484 = const()[name = tensor<string, []>("op_484"), val = tensor<int32, [2]>([2, 3])];
            tensor<fp16, [1, 256, 1, 1]> input_109_cast_fp16 = reduce_mean(axes = var_484, keep_dims = var_8, x = x_7_cast_fp16)[name = tensor<string, []>("input_109_cast_fp16")];
            tensor<int32, [2]> var_488 = const()[name = tensor<string, []>("op_488"), val = tensor<int32, [2]>([1, 1])];
            tensor<int32, [2]> var_490 = const()[name = tensor<string, []>("op_490"), val = tensor<int32, [2]>([1, 1])];
            tensor<string, []> input0_6_pad_type_0 = const()[name = tensor<string, []>("input0_6_pad_type_0"), val = tensor<string, []>("custom")];
            tensor<int32, [4]> input0_6_pad_0 = const()[name = tensor<string, []>("input0_6_pad_0"), val = tensor<int32, [4]>([0, 0, 0, 0])];
            tensor<fp16, [64, 256, 1, 1]> image_encoder_model_network_3_proj_0_se_fc1_weight_to_fp16 = const()[name = tensor<string, []>("image_encoder_model_network_3_proj_0_se_fc1_weight_to_fp16"), val = tensor<fp16, [64, 256, 1, 1]>(BLOBFILE(path = tensor<string, []>("@model_path/weights/weight.bin"), offset = tensor<uint64, []>(1482176)))];
            tensor<fp16, [64]> image_encoder_model_network_3_proj_0_se_fc1_bias_to_fp16 = const()[name = tensor<string, []>("image_encoder_model_network_3_proj_0_se_fc1_bias_to_fp16"), val = tensor<fp16, [64]>(BLOBFILE(path = tensor<string, []>("@model_path/weights/weight.bin"), offset = tensor<uint64, []>(1515008)))];
            tensor<fp16, [1, 64, 1, 1]> input0_6_cast_fp16 = conv(bias = image_encoder_model_network_3_proj_0_se_fc1_bias_to_fp16, dilations = var_490, groups = var_5, pad = input0_6_pad_0, pad_type = input0_6_pad_type_0, strides = var_488, weight = image_encoder_model_network_3_proj_0_se_fc1_weight_to_fp16, x = input_109_cast_fp16)[name = tensor<string, []>("input0_6_cast_fp16")];
            tensor<fp16, [1, 64, 1, 1]> var_493_cast_fp16 = relu(x = input0_6_cast_fp16)[name = tensor<string, []>("op_493_cast_fp16")];
            tensor<int32, [2]> var_496 = const()[name = tensor<string, []>("op_496"), val = tensor<int32, [2]>([1, 1])];
            tensor<int32, [2]> var_498 = const()[name = tensor<string, []>("op_498"), val = tensor<int32, [2]>([1, 1])];
            tensor<string, []> x_9_pad_type_0 = const()[name = tensor<string, []>("x_9_pad_type_0"), val = tensor<string, []>("custom")];
            tensor<int32, [4]> x_9_pad_0 = const()[name = tensor<string, []>("x_9_pad_0"), val = tensor<int32, [4]>([0, 0, 0, 0])];
            tensor<fp16, [256, 64, 1, 1]> image_encoder_model_network_3_proj_0_se_fc2_weight_to_fp16 = const()[name = tensor<string, []>("image_encoder_model_network_3_proj_0_se_fc2_weight_to_fp16"), val = tensor<fp16, [256, 64, 1, 1]>(BLOBFILE(path = tensor<string, []>("@model_path/weights/weight.bin"), offset = tensor<uint64, []>(1515200)))];
            tensor<fp16, [256]> image_encoder_model_network_3_proj_0_se_fc2_bias_to_fp16 = const()[name = tensor<string, []>("image_encoder_model_network_3_proj_0_se_fc2_bias_to_fp16"), val = tensor<fp16, [256]>(BLOBFILE(path = tensor<string, []>("@model_path/weights/weight.bin"), offset = tensor<uint64, []>(1548032)))];
            tensor<fp16, [1, 256, 1, 1]> x_9_cast_fp16 = conv(bias = image_encoder_model_network_3_proj_0_se_fc2_bias_to_fp16, dilations = var_498, groups = var_5, pad = x_9_pad_0, pad_type = x_9_pad_type_0, strides = var_496, weight = image_encoder_model_network_3_proj_0_se_fc2_weight_to_fp16, x = var_493_cast_fp16)[name = tensor<string, []>("x_9_cast_fp16")];
            tensor<fp16, [1, 256, 1, 1]> var_501_cast_fp16 = sigmoid(x = x_9_cast_fp16)[name = tensor<string, []>("op_501_cast_fp16")];
            tensor<fp16, [1, 256, 16, 16]> input0_8_cast_fp16 = mul(x = x_7_cast_fp16, y = var_501_cast_fp16)[name = tensor<string, []>("input0_8_cast_fp16")];
            tensor<string, []> var_503_mode_0 = const()[name = tensor<string, []>("op_503_mode_0"), val = tensor<string, []>("EXACT")];
            tensor<fp16, [1, 256, 16, 16]> var_503_cast_fp16 = gelu(mode = var_503_mode_0, x = input0_8_cast_fp16)[name = tensor<string, []>("op_503_cast_fp16")];
            tensor<int32, [2]> var_507 = const()[name = tensor<string, []>("op_507"), val = tensor<int32, [2]>([1, 1])];
            tensor<int32, [2]> var_509 = const()[name = tensor<string, []>("op_509"), val = tensor<int32, [2]>([1, 1])];
            tensor<string, []> input_117_pad_type_0 = const()[name = tensor<string, []>("input_117_pad_type_0"), val = tensor<string, []>("custom")];
            tensor<int32, [4]> input_117_pad_0 = const()[name = tensor<string, []>("input_117_pad_0"), val = tensor<int32, [4]>([0, 0, 0, 0])];
            tensor<fp16, [256, 256, 1, 1]> image_encoder_model_network_3_proj_1_reparam_conv_weight_to_fp16 = const()[name = tensor<string, []>("image_encoder_model_network_3_proj_1_reparam_conv_weight_to_fp16"), val = tensor<fp16, [256, 256, 1, 1]>(BLOBFILE(path = tensor<string, []>("@model_path/weights/weight.bin"), offset = tensor<uint64, []>(1548608)))];
            tensor<fp16, [256]> image_encoder_model_network_3_proj_1_reparam_conv_bias_to_fp16 = const()[name = tensor<string, []>("image_encoder_model_network_3_proj_1_reparam_conv_bias_to_fp16"), val = tensor<fp16, [256]>(BLOBFILE(path = tensor<string, []>("@model_path/weights/weight.bin"), offset = tensor<uint64, []>(1679744)))];
            tensor<fp16, [1, 256, 16, 16]> input_117_cast_fp16 = conv(bias = image_encoder_model_network_3_proj_1_reparam_conv_bias_to_fp16, dilations = var_509, groups = var_5, pad = input_117_pad_0, pad_type = input_117_pad_type_0, strides = var_507, weight = image_encoder_model_network_3_proj_1_reparam_conv_weight_to_fp16, x = var_503_cast_fp16)[name = tensor<string, []>("input_117_cast_fp16")];
            tensor<string, []> var_512_mode_0 = const()[name = tensor<string, []>("op_512_mode_0"), val = tensor<string, []>("EXACT")];
            tensor<fp16, [1, 256, 16, 16]> var_512_cast_fp16 = gelu(mode = var_512_mode_0, x = input_117_cast_fp16)[name = tensor<string, []>("op_512_cast_fp16")];
            tensor<int32, [2]> var_529 = const()[name = tensor<string, []>("op_529"), val = tensor<int32, [2]>([1, 1])];
            tensor<int32, [2]> var_531 = const()[name = tensor<string, []>("op_531"), val = tensor<int32, [2]>([1, 1])];
            tensor<string, []> input_143_pad_type_0 = const()[name = tensor<string, []>("input_143_pad_type_0"), val = tensor<string, []>("custom")];
            tensor<int32, [4]> input_143_pad_0 = const()[name = tensor<string, []>("input_143_pad_0"), val = tensor<int32, [4]>([1, 1, 1, 1])];
            tensor<fp16, [256, 1, 3, 3]> image_encoder_model_network_4_0_token_mixer_reparam_conv_weight_to_fp16 = const()[name = tensor<string, []>("image_encoder_model_network_4_0_token_mixer_reparam_conv_weight_to_fp16"), val = tensor<fp16, [256, 1, 3, 3]>(BLOBFILE(path = tensor<string, []>("@model_path/weights/weight.bin"), offset = tensor<uint64, []>(1680320)))];
            tensor<fp16, [256]> image_encoder_model_network_4_0_token_mixer_reparam_conv_bias_to_fp16 = const()[name = tensor<string, []>("image_encoder_model_network_4_0_token_mixer_reparam_conv_bias_to_fp16"), val = tensor<fp16, [256]>(BLOBFILE(path = tensor<string, []>("@model_path/weights/weight.bin"), offset = tensor<uint64, []>(1684992)))];
            tensor<fp16, [1, 256, 16, 16]> input_143_cast_fp16 = conv(bias = image_encoder_model_network_4_0_token_mixer_reparam_conv_bias_to_fp16, dilations = var_531, groups = var_16, pad = input_143_pad_0, pad_type = input_143_pad_type_0, strides = var_529, weight = image_encoder_model_network_4_0_token_mixer_reparam_conv_weight_to_fp16, x = var_512_cast_fp16)[name = tensor<string, []>("input_143_cast_fp16")];
            tensor<int32, [2]> var_540 = const()[name = tensor<string, []>("op_540"), val = tensor<int32, [2]>([1, 1])];
            tensor<int32, [2]> var_542 = const()[name = tensor<string, []>("op_542"), val = tensor<int32, [2]>([1, 1])];
            tensor<string, []> input_145_pad_type_0 = const()[name = tensor<string, []>("input_145_pad_type_0"), val = tensor<string, []>("custom")];
            tensor<int32, [4]> input_145_pad_0 = const()[name = tensor<string, []>("input_145_pad_0"), val = tensor<int32, [4]>([3, 3, 3, 3])];
            tensor<fp16, [256, 1, 7, 7]> input_10_weight_0_to_fp16 = const()[name = tensor<string, []>("input_10_weight_0_to_fp16"), val = tensor<fp16, [256, 1, 7, 7]>(BLOBFILE(path = tensor<string, []>("@model_path/weights/weight.bin"), offset = tensor<uint64, []>(1685568)))];
            tensor<fp16, [256]> input_10_bias_0_to_fp16 = const()[name = tensor<string, []>("input_10_bias_0_to_fp16"), val = tensor<fp16, [256]>(BLOBFILE(path = tensor<string, []>("@model_path/weights/weight.bin"), offset = tensor<uint64, []>(1710720)))];
            tensor<fp16, [1, 256, 16, 16]> input_10_cast_fp16 = conv(bias = input_10_bias_0_to_fp16, dilations = var_542, groups = var_16, pad = input_145_pad_0, pad_type = input_145_pad_type_0, strides = var_540, weight = input_10_weight_0_to_fp16, x = input_143_cast_fp16)[name = tensor<string, []>("input_10_cast_fp16")];
            tensor<int32, [2]> var_552 = const()[name = tensor<string, []>("op_552"), val = tensor<int32, [2]>([1, 1])];
            tensor<int32, [2]> var_554 = const()[name = tensor<string, []>("op_554"), val = tensor<int32, [2]>([1, 1])];
            tensor<string, []> input_12_pad_type_0 = const()[name = tensor<string, []>("input_12_pad_type_0"), val = tensor<string, []>("custom")];
            tensor<int32, [4]> input_12_pad_0 = const()[name = tensor<string, []>("input_12_pad_0"), val = tensor<int32, [4]>([0, 0, 0, 0])];
            tensor<fp16, [768, 256, 1, 1]> image_encoder_model_network_4_0_convffn_fc1_weight_to_fp16 = const()[name = tensor<string, []>("image_encoder_model_network_4_0_convffn_fc1_weight_to_fp16"), val = tensor<fp16, [768, 256, 1, 1]>(BLOBFILE(path = tensor<string, []>("@model_path/weights/weight.bin"), offset = tensor<uint64, []>(1711296)))];
            tensor<fp16, [768]> image_encoder_model_network_4_0_convffn_fc1_bias_to_fp16 = const()[name = tensor<string, []>("image_encoder_model_network_4_0_convffn_fc1_bias_to_fp16"), val = tensor<fp16, [768]>(BLOBFILE(path = tensor<string, []>("@model_path/weights/weight.bin"), offset = tensor<uint64, []>(2104576)))];
            tensor<fp16, [1, 768, 16, 16]> input_12_cast_fp16 = conv(bias = image_encoder_model_network_4_0_convffn_fc1_bias_to_fp16, dilations = var_554, groups = var_5, pad = input_12_pad_0, pad_type = input_12_pad_type_0, strides = var_552, weight = image_encoder_model_network_4_0_convffn_fc1_weight_to_fp16, x = input_10_cast_fp16)[name = tensor<string, []>("input_12_cast_fp16")];
            tensor<string, []> var_557_mode_0 = const()[name = tensor<string, []>("op_557_mode_0"), val = tensor<string, []>("EXACT")];
            tensor<fp16, [1, 768, 16, 16]> var_557_cast_fp16 = gelu(mode = var_557_mode_0, x = input_12_cast_fp16)[name = tensor<string, []>("op_557_cast_fp16")];
            tensor<int32, [2]> var_561 = const()[name = tensor<string, []>("op_561"), val = tensor<int32, [2]>([1, 1])];
            tensor<int32, [2]> var_563 = const()[name = tensor<string, []>("op_563"), val = tensor<int32, [2]>([1, 1])];
            tensor<string, []> input_16_pad_type_0 = const()[name = tensor<string, []>("input_16_pad_type_0"), val = tensor<string, []>("custom")];
            tensor<int32, [4]> input_16_pad_0 = const()[name = tensor<string, []>("input_16_pad_0"), val = tensor<int32, [4]>([0, 0, 0, 0])];
            tensor<fp16, [256, 768, 1, 1]> var_567_weight_0_to_fp16 = const()[name = tensor<string, []>("op_567_weight_0_to_fp16"), val = tensor<fp16, [256, 768, 1, 1]>(BLOBFILE(path = tensor<string, []>("@model_path/weights/weight.bin"), offset = tensor<uint64, []>(2106176)))];
            tensor<fp16, [256]> var_567_bias_0_to_fp16 = const()[name = tensor<string, []>("op_567_bias_0_to_fp16"), val = tensor<fp16, [256]>(BLOBFILE(path = tensor<string, []>("@model_path/weights/weight.bin"), offset = tensor<uint64, []>(2499456)))];
            tensor<fp16, [1, 256, 16, 16]> var_567_cast_fp16 = conv(bias = var_567_bias_0_to_fp16, dilations = var_563, groups = var_5, pad = input_16_pad_0, pad_type = input_16_pad_type_0, strides = var_561, weight = var_567_weight_0_to_fp16, x = var_557_cast_fp16)[name = tensor<string, []>("op_567_cast_fp16")];
            tensor<fp16, [1, 256, 16, 16]> var_568_cast_fp16 = add(x = input_143_cast_fp16, y = var_567_cast_fp16)[name = tensor<string, []>("op_568_cast_fp16")];
            tensor<int32, [2]> var_575 = const()[name = tensor<string, []>("op_575"), val = tensor<int32, [2]>([1, 1])];
            tensor<int32, [2]> var_577 = const()[name = tensor<string, []>("op_577"), val = tensor<int32, [2]>([1, 1])];
            tensor<string, []> input_18_pad_type_0 = const()[name = tensor<string, []>("input_18_pad_type_0"), val = tensor<string, []>("custom")];
            tensor<int32, [4]> input_18_pad_0 = const()[name = tensor<string, []>("input_18_pad_0"), val = tensor<int32, [4]>([1, 1, 1, 1])];
            tensor<fp16, [256, 1, 3, 3]> image_encoder_model_network_4_1_token_mixer_reparam_conv_weight_to_fp16 = const()[name = tensor<string, []>("image_encoder_model_network_4_1_token_mixer_reparam_conv_weight_to_fp16"), val = tensor<fp16, [256, 1, 3, 3]>(BLOBFILE(path = tensor<string, []>("@model_path/weights/weight.bin"), offset = tensor<uint64, []>(2500032)))];
            tensor<fp16, [256]> image_encoder_model_network_4_1_token_mixer_reparam_conv_bias_to_fp16 = const()[name = tensor<string, []>("image_encoder_model_network_4_1_token_mixer_reparam_conv_bias_to_fp16"), val = tensor<fp16, [256]>(BLOBFILE(path = tensor<string, []>("@model_path/weights/weight.bin"), offset = tensor<uint64, []>(2504704)))];
            tensor<fp16, [1, 256, 16, 16]> input_18_cast_fp16 = conv(bias = image_encoder_model_network_4_1_token_mixer_reparam_conv_bias_to_fp16, dilations = var_577, groups = var_16, pad = input_18_pad_0, pad_type = input_18_pad_type_0, strides = var_575, weight = image_encoder_model_network_4_1_token_mixer_reparam_conv_weight_to_fp16, x = var_568_cast_fp16)[name = tensor<string, []>("input_18_cast_fp16")];
            tensor<int32, [2]> var_586 = const()[name = tensor<string, []>("op_586"), val = tensor<int32, [2]>([1, 1])];
            tensor<int32, [2]> var_588 = const()[name = tensor<string, []>("op_588"), val = tensor<int32, [2]>([1, 1])];
            tensor<string, []> input_20_pad_type_0 = const()[name = tensor<string, []>("input_20_pad_type_0"), val = tensor<string, []>("custom")];
            tensor<int32, [4]> input_20_pad_0 = const()[name = tensor<string, []>("input_20_pad_0"), val = tensor<int32, [4]>([3, 3, 3, 3])];
            tensor<fp16, [256, 1, 7, 7]> input_22_weight_0_to_fp16 = const()[name = tensor<string, []>("input_22_weight_0_to_fp16"), val = tensor<fp16, [256, 1, 7, 7]>(BLOBFILE(path = tensor<string, []>("@model_path/weights/weight.bin"), offset = tensor<uint64, []>(2505280)))];
            tensor<fp16, [256]> input_22_bias_0_to_fp16 = const()[name = tensor<string, []>("input_22_bias_0_to_fp16"), val = tensor<fp16, [256]>(BLOBFILE(path = tensor<string, []>("@model_path/weights/weight.bin"), offset = tensor<uint64, []>(2530432)))];
            tensor<fp16, [1, 256, 16, 16]> input_22_cast_fp16 = conv(bias = input_22_bias_0_to_fp16, dilations = var_588, groups = var_16, pad = input_20_pad_0, pad_type = input_20_pad_type_0, strides = var_586, weight = input_22_weight_0_to_fp16, x = input_18_cast_fp16)[name = tensor<string, []>("input_22_cast_fp16")];
            tensor<int32, [2]> var_598 = const()[name = tensor<string, []>("op_598"), val = tensor<int32, [2]>([1, 1])];
            tensor<int32, [2]> var_600 = const()[name = tensor<string, []>("op_600"), val = tensor<int32, [2]>([1, 1])];
            tensor<string, []> input_24_pad_type_0 = const()[name = tensor<string, []>("input_24_pad_type_0"), val = tensor<string, []>("custom")];
            tensor<int32, [4]> input_24_pad_0 = const()[name = tensor<string, []>("input_24_pad_0"), val = tensor<int32, [4]>([0, 0, 0, 0])];
            tensor<fp16, [768, 256, 1, 1]> image_encoder_model_network_4_1_convffn_fc1_weight_to_fp16 = const()[name = tensor<string, []>("image_encoder_model_network_4_1_convffn_fc1_weight_to_fp16"), val = tensor<fp16, [768, 256, 1, 1]>(BLOBFILE(path = tensor<string, []>("@model_path/weights/weight.bin"), offset = tensor<uint64, []>(2531008)))];
            tensor<fp16, [768]> image_encoder_model_network_4_1_convffn_fc1_bias_to_fp16 = const()[name = tensor<string, []>("image_encoder_model_network_4_1_convffn_fc1_bias_to_fp16"), val = tensor<fp16, [768]>(BLOBFILE(path = tensor<string, []>("@model_path/weights/weight.bin"), offset = tensor<uint64, []>(2924288)))];
            tensor<fp16, [1, 768, 16, 16]> input_24_cast_fp16 = conv(bias = image_encoder_model_network_4_1_convffn_fc1_bias_to_fp16, dilations = var_600, groups = var_5, pad = input_24_pad_0, pad_type = input_24_pad_type_0, strides = var_598, weight = image_encoder_model_network_4_1_convffn_fc1_weight_to_fp16, x = input_22_cast_fp16)[name = tensor<string, []>("input_24_cast_fp16")];
            tensor<string, []> var_603_mode_0 = const()[name = tensor<string, []>("op_603_mode_0"), val = tensor<string, []>("EXACT")];
            tensor<fp16, [1, 768, 16, 16]> var_603_cast_fp16 = gelu(mode = var_603_mode_0, x = input_24_cast_fp16)[name = tensor<string, []>("op_603_cast_fp16")];
            tensor<int32, [2]> var_607 = const()[name = tensor<string, []>("op_607"), val = tensor<int32, [2]>([1, 1])];
            tensor<int32, [2]> var_609 = const()[name = tensor<string, []>("op_609"), val = tensor<int32, [2]>([1, 1])];
            tensor<string, []> input_28_pad_type_0 = const()[name = tensor<string, []>("input_28_pad_type_0"), val = tensor<string, []>("custom")];
            tensor<int32, [4]> input_28_pad_0 = const()[name = tensor<string, []>("input_28_pad_0"), val = tensor<int32, [4]>([0, 0, 0, 0])];
            tensor<fp16, [256, 768, 1, 1]> var_613_weight_0_to_fp16 = const()[name = tensor<string, []>("op_613_weight_0_to_fp16"), val = tensor<fp16, [256, 768, 1, 1]>(BLOBFILE(path = tensor<string, []>("@model_path/weights/weight.bin"), offset = tensor<uint64, []>(2925888)))];
            tensor<fp16, [256]> var_613_bias_0_to_fp16 = const()[name = tensor<string, []>("op_613_bias_0_to_fp16"), val = tensor<fp16, [256]>(BLOBFILE(path = tensor<string, []>("@model_path/weights/weight.bin"), offset = tensor<uint64, []>(3319168)))];
            tensor<fp16, [1, 256, 16, 16]> var_613_cast_fp16 = conv(bias = var_613_bias_0_to_fp16, dilations = var_609, groups = var_5, pad = input_28_pad_0, pad_type = input_28_pad_type_0, strides = var_607, weight = var_613_weight_0_to_fp16, x = var_603_cast_fp16)[name = tensor<string, []>("op_613_cast_fp16")];
            tensor<fp16, [1, 256, 16, 16]> var_614_cast_fp16 = add(x = input_18_cast_fp16, y = var_613_cast_fp16)[name = tensor<string, []>("op_614_cast_fp16")];
            tensor<int32, [2]> var_621 = const()[name = tensor<string, []>("op_621"), val = tensor<int32, [2]>([1, 1])];
            tensor<int32, [2]> var_623 = const()[name = tensor<string, []>("op_623"), val = tensor<int32, [2]>([1, 1])];
            tensor<string, []> input_30_pad_type_0 = const()[name = tensor<string, []>("input_30_pad_type_0"), val = tensor<string, []>("custom")];
            tensor<int32, [4]> input_30_pad_0 = const()[name = tensor<string, []>("input_30_pad_0"), val = tensor<int32, [4]>([1, 1, 1, 1])];
            tensor<fp16, [256, 1, 3, 3]> image_encoder_model_network_4_2_token_mixer_reparam_conv_weight_to_fp16 = const()[name = tensor<string, []>("image_encoder_model_network_4_2_token_mixer_reparam_conv_weight_to_fp16"), val = tensor<fp16, [256, 1, 3, 3]>(BLOBFILE(path = tensor<string, []>("@model_path/weights/weight.bin"), offset = tensor<uint64, []>(3319744)))];
            tensor<fp16, [256]> image_encoder_model_network_4_2_token_mixer_reparam_conv_bias_to_fp16 = const()[name = tensor<string, []>("image_encoder_model_network_4_2_token_mixer_reparam_conv_bias_to_fp16"), val = tensor<fp16, [256]>(BLOBFILE(path = tensor<string, []>("@model_path/weights/weight.bin"), offset = tensor<uint64, []>(3324416)))];
            tensor<fp16, [1, 256, 16, 16]> input_30_cast_fp16 = conv(bias = image_encoder_model_network_4_2_token_mixer_reparam_conv_bias_to_fp16, dilations = var_623, groups = var_16, pad = input_30_pad_0, pad_type = input_30_pad_type_0, strides = var_621, weight = image_encoder_model_network_4_2_token_mixer_reparam_conv_weight_to_fp16, x = var_614_cast_fp16)[name = tensor<string, []>("input_30_cast_fp16")];
            tensor<int32, [2]> var_632 = const()[name = tensor<string, []>("op_632"), val = tensor<int32, [2]>([1, 1])];
            tensor<int32, [2]> var_634 = const()[name = tensor<string, []>("op_634"), val = tensor<int32, [2]>([1, 1])];
            tensor<string, []> input_32_pad_type_0 = const()[name = tensor<string, []>("input_32_pad_type_0"), val = tensor<string, []>("custom")];
            tensor<int32, [4]> input_32_pad_0 = const()[name = tensor<string, []>("input_32_pad_0"), val = tensor<int32, [4]>([3, 3, 3, 3])];
            tensor<fp16, [256, 1, 7, 7]> input_34_weight_0_to_fp16 = const()[name = tensor<string, []>("input_34_weight_0_to_fp16"), val = tensor<fp16, [256, 1, 7, 7]>(BLOBFILE(path = tensor<string, []>("@model_path/weights/weight.bin"), offset = tensor<uint64, []>(3324992)))];
            tensor<fp16, [256]> input_34_bias_0_to_fp16 = const()[name = tensor<string, []>("input_34_bias_0_to_fp16"), val = tensor<fp16, [256]>(BLOBFILE(path = tensor<string, []>("@model_path/weights/weight.bin"), offset = tensor<uint64, []>(3350144)))];
            tensor<fp16, [1, 256, 16, 16]> input_34_cast_fp16 = conv(bias = input_34_bias_0_to_fp16, dilations = var_634, groups = var_16, pad = input_32_pad_0, pad_type = input_32_pad_type_0, strides = var_632, weight = input_34_weight_0_to_fp16, x = input_30_cast_fp16)[name = tensor<string, []>("input_34_cast_fp16")];
            tensor<int32, [2]> var_644 = const()[name = tensor<string, []>("op_644"), val = tensor<int32, [2]>([1, 1])];
            tensor<int32, [2]> var_646 = const()[name = tensor<string, []>("op_646"), val = tensor<int32, [2]>([1, 1])];
            tensor<string, []> input_36_pad_type_0 = const()[name = tensor<string, []>("input_36_pad_type_0"), val = tensor<string, []>("custom")];
            tensor<int32, [4]> input_36_pad_0 = const()[name = tensor<string, []>("input_36_pad_0"), val = tensor<int32, [4]>([0, 0, 0, 0])];
            tensor<fp16, [768, 256, 1, 1]> image_encoder_model_network_4_2_convffn_fc1_weight_to_fp16 = const()[name = tensor<string, []>("image_encoder_model_network_4_2_convffn_fc1_weight_to_fp16"), val = tensor<fp16, [768, 256, 1, 1]>(BLOBFILE(path = tensor<string, []>("@model_path/weights/weight.bin"), offset = tensor<uint64, []>(3350720)))];
            tensor<fp16, [768]> image_encoder_model_network_4_2_convffn_fc1_bias_to_fp16 = const()[name = tensor<string, []>("image_encoder_model_network_4_2_convffn_fc1_bias_to_fp16"), val = tensor<fp16, [768]>(BLOBFILE(path = tensor<string, []>("@model_path/weights/weight.bin"), offset = tensor<uint64, []>(3744000)))];
            tensor<fp16, [1, 768, 16, 16]> input_36_cast_fp16 = conv(bias = image_encoder_model_network_4_2_convffn_fc1_bias_to_fp16, dilations = var_646, groups = var_5, pad = input_36_pad_0, pad_type = input_36_pad_type_0, strides = var_644, weight = image_encoder_model_network_4_2_convffn_fc1_weight_to_fp16, x = input_34_cast_fp16)[name = tensor<string, []>("input_36_cast_fp16")];
            tensor<string, []> var_649_mode_0 = const()[name = tensor<string, []>("op_649_mode_0"), val = tensor<string, []>("EXACT")];
            tensor<fp16, [1, 768, 16, 16]> var_649_cast_fp16 = gelu(mode = var_649_mode_0, x = input_36_cast_fp16)[name = tensor<string, []>("op_649_cast_fp16")];
            tensor<int32, [2]> var_653 = const()[name = tensor<string, []>("op_653"), val = tensor<int32, [2]>([1, 1])];
            tensor<int32, [2]> var_655 = const()[name = tensor<string, []>("op_655"), val = tensor<int32, [2]>([1, 1])];
            tensor<string, []> input_40_pad_type_0 = const()[name = tensor<string, []>("input_40_pad_type_0"), val = tensor<string, []>("custom")];
            tensor<int32, [4]> input_40_pad_0 = const()[name = tensor<string, []>("input_40_pad_0"), val = tensor<int32, [4]>([0, 0, 0, 0])];
            tensor<fp16, [256, 768, 1, 1]> var_659_weight_0_to_fp16 = const()[name = tensor<string, []>("op_659_weight_0_to_fp16"), val = tensor<fp16, [256, 768, 1, 1]>(BLOBFILE(path = tensor<string, []>("@model_path/weights/weight.bin"), offset = tensor<uint64, []>(3745600)))];
            tensor<fp16, [256]> var_659_bias_0_to_fp16 = const()[name = tensor<string, []>("op_659_bias_0_to_fp16"), val = tensor<fp16, [256]>(BLOBFILE(path = tensor<string, []>("@model_path/weights/weight.bin"), offset = tensor<uint64, []>(4138880)))];
            tensor<fp16, [1, 256, 16, 16]> var_659_cast_fp16 = conv(bias = var_659_bias_0_to_fp16, dilations = var_655, groups = var_5, pad = input_40_pad_0, pad_type = input_40_pad_type_0, strides = var_653, weight = var_659_weight_0_to_fp16, x = var_649_cast_fp16)[name = tensor<string, []>("op_659_cast_fp16")];
            tensor<fp16, [1, 256, 16, 16]> var_660_cast_fp16 = add(x = input_30_cast_fp16, y = var_659_cast_fp16)[name = tensor<string, []>("op_660_cast_fp16")];
            tensor<int32, [2]> var_667 = const()[name = tensor<string, []>("op_667"), val = tensor<int32, [2]>([1, 1])];
            tensor<int32, [2]> var_669 = const()[name = tensor<string, []>("op_669"), val = tensor<int32, [2]>([1, 1])];
            tensor<string, []> input_42_pad_type_0 = const()[name = tensor<string, []>("input_42_pad_type_0"), val = tensor<string, []>("custom")];
            tensor<int32, [4]> input_42_pad_0 = const()[name = tensor<string, []>("input_42_pad_0"), val = tensor<int32, [4]>([1, 1, 1, 1])];
            tensor<fp16, [256, 1, 3, 3]> image_encoder_model_network_4_3_token_mixer_reparam_conv_weight_to_fp16 = const()[name = tensor<string, []>("image_encoder_model_network_4_3_token_mixer_reparam_conv_weight_to_fp16"), val = tensor<fp16, [256, 1, 3, 3]>(BLOBFILE(path = tensor<string, []>("@model_path/weights/weight.bin"), offset = tensor<uint64, []>(4139456)))];
            tensor<fp16, [256]> image_encoder_model_network_4_3_token_mixer_reparam_conv_bias_to_fp16 = const()[name = tensor<string, []>("image_encoder_model_network_4_3_token_mixer_reparam_conv_bias_to_fp16"), val = tensor<fp16, [256]>(BLOBFILE(path = tensor<string, []>("@model_path/weights/weight.bin"), offset = tensor<uint64, []>(4144128)))];
            tensor<fp16, [1, 256, 16, 16]> input_42_cast_fp16 = conv(bias = image_encoder_model_network_4_3_token_mixer_reparam_conv_bias_to_fp16, dilations = var_669, groups = var_16, pad = input_42_pad_0, pad_type = input_42_pad_type_0, strides = var_667, weight = image_encoder_model_network_4_3_token_mixer_reparam_conv_weight_to_fp16, x = var_660_cast_fp16)[name = tensor<string, []>("input_42_cast_fp16")];
            tensor<int32, [2]> var_678 = const()[name = tensor<string, []>("op_678"), val = tensor<int32, [2]>([1, 1])];
            tensor<int32, [2]> var_680 = const()[name = tensor<string, []>("op_680"), val = tensor<int32, [2]>([1, 1])];
            tensor<string, []> input_44_pad_type_0 = const()[name = tensor<string, []>("input_44_pad_type_0"), val = tensor<string, []>("custom")];
            tensor<int32, [4]> input_44_pad_0 = const()[name = tensor<string, []>("input_44_pad_0"), val = tensor<int32, [4]>([3, 3, 3, 3])];
            tensor<fp16, [256, 1, 7, 7]> input_46_weight_0_to_fp16 = const()[name = tensor<string, []>("input_46_weight_0_to_fp16"), val = tensor<fp16, [256, 1, 7, 7]>(BLOBFILE(path = tensor<string, []>("@model_path/weights/weight.bin"), offset = tensor<uint64, []>(4144704)))];
            tensor<fp16, [256]> input_46_bias_0_to_fp16 = const()[name = tensor<string, []>("input_46_bias_0_to_fp16"), val = tensor<fp16, [256]>(BLOBFILE(path = tensor<string, []>("@model_path/weights/weight.bin"), offset = tensor<uint64, []>(4169856)))];
            tensor<fp16, [1, 256, 16, 16]> input_46_cast_fp16 = conv(bias = input_46_bias_0_to_fp16, dilations = var_680, groups = var_16, pad = input_44_pad_0, pad_type = input_44_pad_type_0, strides = var_678, weight = input_46_weight_0_to_fp16, x = input_42_cast_fp16)[name = tensor<string, []>("input_46_cast_fp16")];
            tensor<int32, [2]> var_690 = const()[name = tensor<string, []>("op_690"), val = tensor<int32, [2]>([1, 1])];
            tensor<int32, [2]> var_692 = const()[name = tensor<string, []>("op_692"), val = tensor<int32, [2]>([1, 1])];
            tensor<string, []> input_48_pad_type_0 = const()[name = tensor<string, []>("input_48_pad_type_0"), val = tensor<string, []>("custom")];
            tensor<int32, [4]> input_48_pad_0 = const()[name = tensor<string, []>("input_48_pad_0"), val = tensor<int32, [4]>([0, 0, 0, 0])];
            tensor<fp16, [768, 256, 1, 1]> image_encoder_model_network_4_3_convffn_fc1_weight_to_fp16 = const()[name = tensor<string, []>("image_encoder_model_network_4_3_convffn_fc1_weight_to_fp16"), val = tensor<fp16, [768, 256, 1, 1]>(BLOBFILE(path = tensor<string, []>("@model_path/weights/weight.bin"), offset = tensor<uint64, []>(4170432)))];
            tensor<fp16, [768]> image_encoder_model_network_4_3_convffn_fc1_bias_to_fp16 = const()[name = tensor<string, []>("image_encoder_model_network_4_3_convffn_fc1_bias_to_fp16"), val = tensor<fp16, [768]>(BLOBFILE(path = tensor<string, []>("@model_path/weights/weight.bin"), offset = tensor<uint64, []>(4563712)))];
            tensor<fp16, [1, 768, 16, 16]> input_48_cast_fp16 = conv(bias = image_encoder_model_network_4_3_convffn_fc1_bias_to_fp16, dilations = var_692, groups = var_5, pad = input_48_pad_0, pad_type = input_48_pad_type_0, strides = var_690, weight = image_encoder_model_network_4_3_convffn_fc1_weight_to_fp16, x = input_46_cast_fp16)[name = tensor<string, []>("input_48_cast_fp16")];
            tensor<string, []> var_695_mode_0 = const()[name = tensor<string, []>("op_695_mode_0"), val = tensor<string, []>("EXACT")];
            tensor<fp16, [1, 768, 16, 16]> var_695_cast_fp16 = gelu(mode = var_695_mode_0, x = input_48_cast_fp16)[name = tensor<string, []>("op_695_cast_fp16")];
            tensor<int32, [2]> var_699 = const()[name = tensor<string, []>("op_699"), val = tensor<int32, [2]>([1, 1])];
            tensor<int32, [2]> var_701 = const()[name = tensor<string, []>("op_701"), val = tensor<int32, [2]>([1, 1])];
            tensor<string, []> input_52_pad_type_0 = const()[name = tensor<string, []>("input_52_pad_type_0"), val = tensor<string, []>("custom")];
            tensor<int32, [4]> input_52_pad_0 = const()[name = tensor<string, []>("input_52_pad_0"), val = tensor<int32, [4]>([0, 0, 0, 0])];
            tensor<fp16, [256, 768, 1, 1]> var_705_weight_0_to_fp16 = const()[name = tensor<string, []>("op_705_weight_0_to_fp16"), val = tensor<fp16, [256, 768, 1, 1]>(BLOBFILE(path = tensor<string, []>("@model_path/weights/weight.bin"), offset = tensor<uint64, []>(4565312)))];
            tensor<fp16, [256]> var_705_bias_0_to_fp16 = const()[name = tensor<string, []>("op_705_bias_0_to_fp16"), val = tensor<fp16, [256]>(BLOBFILE(path = tensor<string, []>("@model_path/weights/weight.bin"), offset = tensor<uint64, []>(4958592)))];
            tensor<fp16, [1, 256, 16, 16]> var_705_cast_fp16 = conv(bias = var_705_bias_0_to_fp16, dilations = var_701, groups = var_5, pad = input_52_pad_0, pad_type = input_52_pad_type_0, strides = var_699, weight = var_705_weight_0_to_fp16, x = var_695_cast_fp16)[name = tensor<string, []>("op_705_cast_fp16")];
            tensor<fp16, [1, 256, 16, 16]> var_706_cast_fp16 = add(x = input_42_cast_fp16, y = var_705_cast_fp16)[name = tensor<string, []>("op_706_cast_fp16")];
            tensor<int32, [2]> var_713 = const()[name = tensor<string, []>("op_713"), val = tensor<int32, [2]>([1, 1])];
            tensor<int32, [2]> var_715 = const()[name = tensor<string, []>("op_715"), val = tensor<int32, [2]>([1, 1])];
            tensor<string, []> input_54_pad_type_0 = const()[name = tensor<string, []>("input_54_pad_type_0"), val = tensor<string, []>("custom")];
            tensor<int32, [4]> input_54_pad_0 = const()[name = tensor<string, []>("input_54_pad_0"), val = tensor<int32, [4]>([1, 1, 1, 1])];
            tensor<fp16, [256, 1, 3, 3]> image_encoder_model_network_4_4_token_mixer_reparam_conv_weight_to_fp16 = const()[name = tensor<string, []>("image_encoder_model_network_4_4_token_mixer_reparam_conv_weight_to_fp16"), val = tensor<fp16, [256, 1, 3, 3]>(BLOBFILE(path = tensor<string, []>("@model_path/weights/weight.bin"), offset = tensor<uint64, []>(4959168)))];
            tensor<fp16, [256]> image_encoder_model_network_4_4_token_mixer_reparam_conv_bias_to_fp16 = const()[name = tensor<string, []>("image_encoder_model_network_4_4_token_mixer_reparam_conv_bias_to_fp16"), val = tensor<fp16, [256]>(BLOBFILE(path = tensor<string, []>("@model_path/weights/weight.bin"), offset = tensor<uint64, []>(4963840)))];
            tensor<fp16, [1, 256, 16, 16]> input_54_cast_fp16 = conv(bias = image_encoder_model_network_4_4_token_mixer_reparam_conv_bias_to_fp16, dilations = var_715, groups = var_16, pad = input_54_pad_0, pad_type = input_54_pad_type_0, strides = var_713, weight = image_encoder_model_network_4_4_token_mixer_reparam_conv_weight_to_fp16, x = var_706_cast_fp16)[name = tensor<string, []>("input_54_cast_fp16")];
            tensor<int32, [2]> var_724 = const()[name = tensor<string, []>("op_724"), val = tensor<int32, [2]>([1, 1])];
            tensor<int32, [2]> var_726 = const()[name = tensor<string, []>("op_726"), val = tensor<int32, [2]>([1, 1])];
            tensor<string, []> input_56_pad_type_0 = const()[name = tensor<string, []>("input_56_pad_type_0"), val = tensor<string, []>("custom")];
            tensor<int32, [4]> input_56_pad_0 = const()[name = tensor<string, []>("input_56_pad_0"), val = tensor<int32, [4]>([3, 3, 3, 3])];
            tensor<fp16, [256, 1, 7, 7]> input_58_weight_0_to_fp16 = const()[name = tensor<string, []>("input_58_weight_0_to_fp16"), val = tensor<fp16, [256, 1, 7, 7]>(BLOBFILE(path = tensor<string, []>("@model_path/weights/weight.bin"), offset = tensor<uint64, []>(4964416)))];
            tensor<fp16, [256]> input_58_bias_0_to_fp16 = const()[name = tensor<string, []>("input_58_bias_0_to_fp16"), val = tensor<fp16, [256]>(BLOBFILE(path = tensor<string, []>("@model_path/weights/weight.bin"), offset = tensor<uint64, []>(4989568)))];
            tensor<fp16, [1, 256, 16, 16]> input_58_cast_fp16 = conv(bias = input_58_bias_0_to_fp16, dilations = var_726, groups = var_16, pad = input_56_pad_0, pad_type = input_56_pad_type_0, strides = var_724, weight = input_58_weight_0_to_fp16, x = input_54_cast_fp16)[name = tensor<string, []>("input_58_cast_fp16")];
            tensor<int32, [2]> var_736 = const()[name = tensor<string, []>("op_736"), val = tensor<int32, [2]>([1, 1])];
            tensor<int32, [2]> var_738 = const()[name = tensor<string, []>("op_738"), val = tensor<int32, [2]>([1, 1])];
            tensor<string, []> input_60_pad_type_0 = const()[name = tensor<string, []>("input_60_pad_type_0"), val = tensor<string, []>("custom")];
            tensor<int32, [4]> input_60_pad_0 = const()[name = tensor<string, []>("input_60_pad_0"), val = tensor<int32, [4]>([0, 0, 0, 0])];
            tensor<fp16, [768, 256, 1, 1]> image_encoder_model_network_4_4_convffn_fc1_weight_to_fp16 = const()[name = tensor<string, []>("image_encoder_model_network_4_4_convffn_fc1_weight_to_fp16"), val = tensor<fp16, [768, 256, 1, 1]>(BLOBFILE(path = tensor<string, []>("@model_path/weights/weight.bin"), offset = tensor<uint64, []>(4990144)))];
            tensor<fp16, [768]> image_encoder_model_network_4_4_convffn_fc1_bias_to_fp16 = const()[name = tensor<string, []>("image_encoder_model_network_4_4_convffn_fc1_bias_to_fp16"), val = tensor<fp16, [768]>(BLOBFILE(path = tensor<string, []>("@model_path/weights/weight.bin"), offset = tensor<uint64, []>(5383424)))];
            tensor<fp16, [1, 768, 16, 16]> input_60_cast_fp16 = conv(bias = image_encoder_model_network_4_4_convffn_fc1_bias_to_fp16, dilations = var_738, groups = var_5, pad = input_60_pad_0, pad_type = input_60_pad_type_0, strides = var_736, weight = image_encoder_model_network_4_4_convffn_fc1_weight_to_fp16, x = input_58_cast_fp16)[name = tensor<string, []>("input_60_cast_fp16")];
            tensor<string, []> var_741_mode_0 = const()[name = tensor<string, []>("op_741_mode_0"), val = tensor<string, []>("EXACT")];
            tensor<fp16, [1, 768, 16, 16]> var_741_cast_fp16 = gelu(mode = var_741_mode_0, x = input_60_cast_fp16)[name = tensor<string, []>("op_741_cast_fp16")];
            tensor<int32, [2]> var_745 = const()[name = tensor<string, []>("op_745"), val = tensor<int32, [2]>([1, 1])];
            tensor<int32, [2]> var_747 = const()[name = tensor<string, []>("op_747"), val = tensor<int32, [2]>([1, 1])];
            tensor<string, []> input_64_pad_type_0 = const()[name = tensor<string, []>("input_64_pad_type_0"), val = tensor<string, []>("custom")];
            tensor<int32, [4]> input_64_pad_0 = const()[name = tensor<string, []>("input_64_pad_0"), val = tensor<int32, [4]>([0, 0, 0, 0])];
            tensor<fp16, [256, 768, 1, 1]> var_751_weight_0_to_fp16 = const()[name = tensor<string, []>("op_751_weight_0_to_fp16"), val = tensor<fp16, [256, 768, 1, 1]>(BLOBFILE(path = tensor<string, []>("@model_path/weights/weight.bin"), offset = tensor<uint64, []>(5385024)))];
            tensor<fp16, [256]> var_751_bias_0_to_fp16 = const()[name = tensor<string, []>("op_751_bias_0_to_fp16"), val = tensor<fp16, [256]>(BLOBFILE(path = tensor<string, []>("@model_path/weights/weight.bin"), offset = tensor<uint64, []>(5778304)))];
            tensor<fp16, [1, 256, 16, 16]> var_751_cast_fp16 = conv(bias = var_751_bias_0_to_fp16, dilations = var_747, groups = var_5, pad = input_64_pad_0, pad_type = input_64_pad_type_0, strides = var_745, weight = var_751_weight_0_to_fp16, x = var_741_cast_fp16)[name = tensor<string, []>("op_751_cast_fp16")];
            tensor<fp16, [1, 256, 16, 16]> var_752_cast_fp16 = add(x = input_54_cast_fp16, y = var_751_cast_fp16)[name = tensor<string, []>("op_752_cast_fp16")];
            tensor<int32, [2]> var_759 = const()[name = tensor<string, []>("op_759"), val = tensor<int32, [2]>([1, 1])];
            tensor<int32, [2]> var_761 = const()[name = tensor<string, []>("op_761"), val = tensor<int32, [2]>([1, 1])];
            tensor<string, []> input_66_pad_type_0 = const()[name = tensor<string, []>("input_66_pad_type_0"), val = tensor<string, []>("custom")];
            tensor<int32, [4]> input_66_pad_0 = const()[name = tensor<string, []>("input_66_pad_0"), val = tensor<int32, [4]>([1, 1, 1, 1])];
            tensor<fp16, [256, 1, 3, 3]> image_encoder_model_network_4_5_token_mixer_reparam_conv_weight_to_fp16 = const()[name = tensor<string, []>("image_encoder_model_network_4_5_token_mixer_reparam_conv_weight_to_fp16"), val = tensor<fp16, [256, 1, 3, 3]>(BLOBFILE(path = tensor<string, []>("@model_path/weights/weight.bin"), offset = tensor<uint64, []>(5778880)))];
            tensor<fp16, [256]> image_encoder_model_network_4_5_token_mixer_reparam_conv_bias_to_fp16 = const()[name = tensor<string, []>("image_encoder_model_network_4_5_token_mixer_reparam_conv_bias_to_fp16"), val = tensor<fp16, [256]>(BLOBFILE(path = tensor<string, []>("@model_path/weights/weight.bin"), offset = tensor<uint64, []>(5783552)))];
            tensor<fp16, [1, 256, 16, 16]> input_66_cast_fp16 = conv(bias = image_encoder_model_network_4_5_token_mixer_reparam_conv_bias_to_fp16, dilations = var_761, groups = var_16, pad = input_66_pad_0, pad_type = input_66_pad_type_0, strides = var_759, weight = image_encoder_model_network_4_5_token_mixer_reparam_conv_weight_to_fp16, x = var_752_cast_fp16)[name = tensor<string, []>("input_66_cast_fp16")];
            tensor<int32, [2]> var_770 = const()[name = tensor<string, []>("op_770"), val = tensor<int32, [2]>([1, 1])];
            tensor<int32, [2]> var_772 = const()[name = tensor<string, []>("op_772"), val = tensor<int32, [2]>([1, 1])];
            tensor<string, []> input_68_pad_type_0 = const()[name = tensor<string, []>("input_68_pad_type_0"), val = tensor<string, []>("custom")];
            tensor<int32, [4]> input_68_pad_0 = const()[name = tensor<string, []>("input_68_pad_0"), val = tensor<int32, [4]>([3, 3, 3, 3])];
            tensor<fp16, [256, 1, 7, 7]> input_70_weight_0_to_fp16 = const()[name = tensor<string, []>("input_70_weight_0_to_fp16"), val = tensor<fp16, [256, 1, 7, 7]>(BLOBFILE(path = tensor<string, []>("@model_path/weights/weight.bin"), offset = tensor<uint64, []>(5784128)))];
            tensor<fp16, [256]> input_70_bias_0_to_fp16 = const()[name = tensor<string, []>("input_70_bias_0_to_fp16"), val = tensor<fp16, [256]>(BLOBFILE(path = tensor<string, []>("@model_path/weights/weight.bin"), offset = tensor<uint64, []>(5809280)))];
            tensor<fp16, [1, 256, 16, 16]> input_70_cast_fp16 = conv(bias = input_70_bias_0_to_fp16, dilations = var_772, groups = var_16, pad = input_68_pad_0, pad_type = input_68_pad_type_0, strides = var_770, weight = input_70_weight_0_to_fp16, x = input_66_cast_fp16)[name = tensor<string, []>("input_70_cast_fp16")];
            tensor<int32, [2]> var_782 = const()[name = tensor<string, []>("op_782"), val = tensor<int32, [2]>([1, 1])];
            tensor<int32, [2]> var_784 = const()[name = tensor<string, []>("op_784"), val = tensor<int32, [2]>([1, 1])];
            tensor<string, []> input_72_pad_type_0 = const()[name = tensor<string, []>("input_72_pad_type_0"), val = tensor<string, []>("custom")];
            tensor<int32, [4]> input_72_pad_0 = const()[name = tensor<string, []>("input_72_pad_0"), val = tensor<int32, [4]>([0, 0, 0, 0])];
            tensor<fp16, [768, 256, 1, 1]> image_encoder_model_network_4_5_convffn_fc1_weight_to_fp16 = const()[name = tensor<string, []>("image_encoder_model_network_4_5_convffn_fc1_weight_to_fp16"), val = tensor<fp16, [768, 256, 1, 1]>(BLOBFILE(path = tensor<string, []>("@model_path/weights/weight.bin"), offset = tensor<uint64, []>(5809856)))];
            tensor<fp16, [768]> image_encoder_model_network_4_5_convffn_fc1_bias_to_fp16 = const()[name = tensor<string, []>("image_encoder_model_network_4_5_convffn_fc1_bias_to_fp16"), val = tensor<fp16, [768]>(BLOBFILE(path = tensor<string, []>("@model_path/weights/weight.bin"), offset = tensor<uint64, []>(6203136)))];
            tensor<fp16, [1, 768, 16, 16]> input_72_cast_fp16 = conv(bias = image_encoder_model_network_4_5_convffn_fc1_bias_to_fp16, dilations = var_784, groups = var_5, pad = input_72_pad_0, pad_type = input_72_pad_type_0, strides = var_782, weight = image_encoder_model_network_4_5_convffn_fc1_weight_to_fp16, x = input_70_cast_fp16)[name = tensor<string, []>("input_72_cast_fp16")];
            tensor<string, []> var_787_mode_0 = const()[name = tensor<string, []>("op_787_mode_0"), val = tensor<string, []>("EXACT")];
            tensor<fp16, [1, 768, 16, 16]> var_787_cast_fp16 = gelu(mode = var_787_mode_0, x = input_72_cast_fp16)[name = tensor<string, []>("op_787_cast_fp16")];
            tensor<int32, [2]> var_791 = const()[name = tensor<string, []>("op_791"), val = tensor<int32, [2]>([1, 1])];
            tensor<int32, [2]> var_793 = const()[name = tensor<string, []>("op_793"), val = tensor<int32, [2]>([1, 1])];
            tensor<string, []> input_76_pad_type_0 = const()[name = tensor<string, []>("input_76_pad_type_0"), val = tensor<string, []>("custom")];
            tensor<int32, [4]> input_76_pad_0 = const()[name = tensor<string, []>("input_76_pad_0"), val = tensor<int32, [4]>([0, 0, 0, 0])];
            tensor<fp16, [256, 768, 1, 1]> var_797_weight_0_to_fp16 = const()[name = tensor<string, []>("op_797_weight_0_to_fp16"), val = tensor<fp16, [256, 768, 1, 1]>(BLOBFILE(path = tensor<string, []>("@model_path/weights/weight.bin"), offset = tensor<uint64, []>(6204736)))];
            tensor<fp16, [256]> var_797_bias_0_to_fp16 = const()[name = tensor<string, []>("op_797_bias_0_to_fp16"), val = tensor<fp16, [256]>(BLOBFILE(path = tensor<string, []>("@model_path/weights/weight.bin"), offset = tensor<uint64, []>(6598016)))];
            tensor<fp16, [1, 256, 16, 16]> var_797_cast_fp16 = conv(bias = var_797_bias_0_to_fp16, dilations = var_793, groups = var_5, pad = input_76_pad_0, pad_type = input_76_pad_type_0, strides = var_791, weight = var_797_weight_0_to_fp16, x = var_787_cast_fp16)[name = tensor<string, []>("op_797_cast_fp16")];
            tensor<fp16, [1, 256, 16, 16]> var_798_cast_fp16 = add(x = input_66_cast_fp16, y = var_797_cast_fp16)[name = tensor<string, []>("op_798_cast_fp16")];
            tensor<int32, [2]> var_805 = const()[name = tensor<string, []>("op_805"), val = tensor<int32, [2]>([1, 1])];
            tensor<int32, [2]> var_807 = const()[name = tensor<string, []>("op_807"), val = tensor<int32, [2]>([1, 1])];
            tensor<string, []> input_78_pad_type_0 = const()[name = tensor<string, []>("input_78_pad_type_0"), val = tensor<string, []>("custom")];
            tensor<int32, [4]> input_78_pad_0 = const()[name = tensor<string, []>("input_78_pad_0"), val = tensor<int32, [4]>([1, 1, 1, 1])];
            tensor<fp16, [256, 1, 3, 3]> image_encoder_model_network_4_6_token_mixer_reparam_conv_weight_to_fp16 = const()[name = tensor<string, []>("image_encoder_model_network_4_6_token_mixer_reparam_conv_weight_to_fp16"), val = tensor<fp16, [256, 1, 3, 3]>(BLOBFILE(path = tensor<string, []>("@model_path/weights/weight.bin"), offset = tensor<uint64, []>(6598592)))];
            tensor<fp16, [256]> image_encoder_model_network_4_6_token_mixer_reparam_conv_bias_to_fp16 = const()[name = tensor<string, []>("image_encoder_model_network_4_6_token_mixer_reparam_conv_bias_to_fp16"), val = tensor<fp16, [256]>(BLOBFILE(path = tensor<string, []>("@model_path/weights/weight.bin"), offset = tensor<uint64, []>(6603264)))];
            tensor<fp16, [1, 256, 16, 16]> input_78_cast_fp16 = conv(bias = image_encoder_model_network_4_6_token_mixer_reparam_conv_bias_to_fp16, dilations = var_807, groups = var_16, pad = input_78_pad_0, pad_type = input_78_pad_type_0, strides = var_805, weight = image_encoder_model_network_4_6_token_mixer_reparam_conv_weight_to_fp16, x = var_798_cast_fp16)[name = tensor<string, []>("input_78_cast_fp16")];
            tensor<int32, [2]> var_816 = const()[name = tensor<string, []>("op_816"), val = tensor<int32, [2]>([1, 1])];
            tensor<int32, [2]> var_818 = const()[name = tensor<string, []>("op_818"), val = tensor<int32, [2]>([1, 1])];
            tensor<string, []> input_80_pad_type_0 = const()[name = tensor<string, []>("input_80_pad_type_0"), val = tensor<string, []>("custom")];
            tensor<int32, [4]> input_80_pad_0 = const()[name = tensor<string, []>("input_80_pad_0"), val = tensor<int32, [4]>([3, 3, 3, 3])];
            tensor<fp16, [256, 1, 7, 7]> input_82_weight_0_to_fp16 = const()[name = tensor<string, []>("input_82_weight_0_to_fp16"), val = tensor<fp16, [256, 1, 7, 7]>(BLOBFILE(path = tensor<string, []>("@model_path/weights/weight.bin"), offset = tensor<uint64, []>(6603840)))];
            tensor<fp16, [256]> input_82_bias_0_to_fp16 = const()[name = tensor<string, []>("input_82_bias_0_to_fp16"), val = tensor<fp16, [256]>(BLOBFILE(path = tensor<string, []>("@model_path/weights/weight.bin"), offset = tensor<uint64, []>(6628992)))];
            tensor<fp16, [1, 256, 16, 16]> input_82_cast_fp16 = conv(bias = input_82_bias_0_to_fp16, dilations = var_818, groups = var_16, pad = input_80_pad_0, pad_type = input_80_pad_type_0, strides = var_816, weight = input_82_weight_0_to_fp16, x = input_78_cast_fp16)[name = tensor<string, []>("input_82_cast_fp16")];
            tensor<int32, [2]> var_828 = const()[name = tensor<string, []>("op_828"), val = tensor<int32, [2]>([1, 1])];
            tensor<int32, [2]> var_830 = const()[name = tensor<string, []>("op_830"), val = tensor<int32, [2]>([1, 1])];
            tensor<string, []> input_84_pad_type_0 = const()[name = tensor<string, []>("input_84_pad_type_0"), val = tensor<string, []>("custom")];
            tensor<int32, [4]> input_84_pad_0 = const()[name = tensor<string, []>("input_84_pad_0"), val = tensor<int32, [4]>([0, 0, 0, 0])];
            tensor<fp16, [768, 256, 1, 1]> image_encoder_model_network_4_6_convffn_fc1_weight_to_fp16 = const()[name = tensor<string, []>("image_encoder_model_network_4_6_convffn_fc1_weight_to_fp16"), val = tensor<fp16, [768, 256, 1, 1]>(BLOBFILE(path = tensor<string, []>("@model_path/weights/weight.bin"), offset = tensor<uint64, []>(6629568)))];
            tensor<fp16, [768]> image_encoder_model_network_4_6_convffn_fc1_bias_to_fp16 = const()[name = tensor<string, []>("image_encoder_model_network_4_6_convffn_fc1_bias_to_fp16"), val = tensor<fp16, [768]>(BLOBFILE(path = tensor<string, []>("@model_path/weights/weight.bin"), offset = tensor<uint64, []>(7022848)))];
            tensor<fp16, [1, 768, 16, 16]> input_84_cast_fp16 = conv(bias = image_encoder_model_network_4_6_convffn_fc1_bias_to_fp16, dilations = var_830, groups = var_5, pad = input_84_pad_0, pad_type = input_84_pad_type_0, strides = var_828, weight = image_encoder_model_network_4_6_convffn_fc1_weight_to_fp16, x = input_82_cast_fp16)[name = tensor<string, []>("input_84_cast_fp16")];
            tensor<string, []> var_833_mode_0 = const()[name = tensor<string, []>("op_833_mode_0"), val = tensor<string, []>("EXACT")];
            tensor<fp16, [1, 768, 16, 16]> var_833_cast_fp16 = gelu(mode = var_833_mode_0, x = input_84_cast_fp16)[name = tensor<string, []>("op_833_cast_fp16")];
            tensor<int32, [2]> var_837 = const()[name = tensor<string, []>("op_837"), val = tensor<int32, [2]>([1, 1])];
            tensor<int32, [2]> var_839 = const()[name = tensor<string, []>("op_839"), val = tensor<int32, [2]>([1, 1])];
            tensor<string, []> input_88_pad_type_0 = const()[name = tensor<string, []>("input_88_pad_type_0"), val = tensor<string, []>("custom")];
            tensor<int32, [4]> input_88_pad_0 = const()[name = tensor<string, []>("input_88_pad_0"), val = tensor<int32, [4]>([0, 0, 0, 0])];
            tensor<fp16, [256, 768, 1, 1]> var_843_weight_0_to_fp16 = const()[name = tensor<string, []>("op_843_weight_0_to_fp16"), val = tensor<fp16, [256, 768, 1, 1]>(BLOBFILE(path = tensor<string, []>("@model_path/weights/weight.bin"), offset = tensor<uint64, []>(7024448)))];
            tensor<fp16, [256]> var_843_bias_0_to_fp16 = const()[name = tensor<string, []>("op_843_bias_0_to_fp16"), val = tensor<fp16, [256]>(BLOBFILE(path = tensor<string, []>("@model_path/weights/weight.bin"), offset = tensor<uint64, []>(7417728)))];
            tensor<fp16, [1, 256, 16, 16]> var_843_cast_fp16 = conv(bias = var_843_bias_0_to_fp16, dilations = var_839, groups = var_5, pad = input_88_pad_0, pad_type = input_88_pad_type_0, strides = var_837, weight = var_843_weight_0_to_fp16, x = var_833_cast_fp16)[name = tensor<string, []>("op_843_cast_fp16")];
            tensor<fp16, [1, 256, 16, 16]> var_844_cast_fp16 = add(x = input_78_cast_fp16, y = var_843_cast_fp16)[name = tensor<string, []>("op_844_cast_fp16")];
            tensor<int32, [2]> var_851 = const()[name = tensor<string, []>("op_851"), val = tensor<int32, [2]>([1, 1])];
            tensor<int32, [2]> var_853 = const()[name = tensor<string, []>("op_853"), val = tensor<int32, [2]>([1, 1])];
            tensor<string, []> input_90_pad_type_0 = const()[name = tensor<string, []>("input_90_pad_type_0"), val = tensor<string, []>("custom")];
            tensor<int32, [4]> input_90_pad_0 = const()[name = tensor<string, []>("input_90_pad_0"), val = tensor<int32, [4]>([1, 1, 1, 1])];
            tensor<fp16, [256, 1, 3, 3]> image_encoder_model_network_4_7_token_mixer_reparam_conv_weight_to_fp16 = const()[name = tensor<string, []>("image_encoder_model_network_4_7_token_mixer_reparam_conv_weight_to_fp16"), val = tensor<fp16, [256, 1, 3, 3]>(BLOBFILE(path = tensor<string, []>("@model_path/weights/weight.bin"), offset = tensor<uint64, []>(7418304)))];
            tensor<fp16, [256]> image_encoder_model_network_4_7_token_mixer_reparam_conv_bias_to_fp16 = const()[name = tensor<string, []>("image_encoder_model_network_4_7_token_mixer_reparam_conv_bias_to_fp16"), val = tensor<fp16, [256]>(BLOBFILE(path = tensor<string, []>("@model_path/weights/weight.bin"), offset = tensor<uint64, []>(7422976)))];
            tensor<fp16, [1, 256, 16, 16]> input_90_cast_fp16 = conv(bias = image_encoder_model_network_4_7_token_mixer_reparam_conv_bias_to_fp16, dilations = var_853, groups = var_16, pad = input_90_pad_0, pad_type = input_90_pad_type_0, strides = var_851, weight = image_encoder_model_network_4_7_token_mixer_reparam_conv_weight_to_fp16, x = var_844_cast_fp16)[name = tensor<string, []>("input_90_cast_fp16")];
            tensor<int32, [2]> var_862 = const()[name = tensor<string, []>("op_862"), val = tensor<int32, [2]>([1, 1])];
            tensor<int32, [2]> var_864 = const()[name = tensor<string, []>("op_864"), val = tensor<int32, [2]>([1, 1])];
            tensor<string, []> input_92_pad_type_0 = const()[name = tensor<string, []>("input_92_pad_type_0"), val = tensor<string, []>("custom")];
            tensor<int32, [4]> input_92_pad_0 = const()[name = tensor<string, []>("input_92_pad_0"), val = tensor<int32, [4]>([3, 3, 3, 3])];
            tensor<fp16, [256, 1, 7, 7]> input_94_weight_0_to_fp16 = const()[name = tensor<string, []>("input_94_weight_0_to_fp16"), val = tensor<fp16, [256, 1, 7, 7]>(BLOBFILE(path = tensor<string, []>("@model_path/weights/weight.bin"), offset = tensor<uint64, []>(7423552)))];
            tensor<fp16, [256]> input_94_bias_0_to_fp16 = const()[name = tensor<string, []>("input_94_bias_0_to_fp16"), val = tensor<fp16, [256]>(BLOBFILE(path = tensor<string, []>("@model_path/weights/weight.bin"), offset = tensor<uint64, []>(7448704)))];
            tensor<fp16, [1, 256, 16, 16]> input_94_cast_fp16 = conv(bias = input_94_bias_0_to_fp16, dilations = var_864, groups = var_16, pad = input_92_pad_0, pad_type = input_92_pad_type_0, strides = var_862, weight = input_94_weight_0_to_fp16, x = input_90_cast_fp16)[name = tensor<string, []>("input_94_cast_fp16")];
            tensor<int32, [2]> var_874 = const()[name = tensor<string, []>("op_874"), val = tensor<int32, [2]>([1, 1])];
            tensor<int32, [2]> var_876 = const()[name = tensor<string, []>("op_876"), val = tensor<int32, [2]>([1, 1])];
            tensor<string, []> input_96_pad_type_0 = const()[name = tensor<string, []>("input_96_pad_type_0"), val = tensor<string, []>("custom")];
            tensor<int32, [4]> input_96_pad_0 = const()[name = tensor<string, []>("input_96_pad_0"), val = tensor<int32, [4]>([0, 0, 0, 0])];
            tensor<fp16, [768, 256, 1, 1]> image_encoder_model_network_4_7_convffn_fc1_weight_to_fp16 = const()[name = tensor<string, []>("image_encoder_model_network_4_7_convffn_fc1_weight_to_fp16"), val = tensor<fp16, [768, 256, 1, 1]>(BLOBFILE(path = tensor<string, []>("@model_path/weights/weight.bin"), offset = tensor<uint64, []>(7449280)))];
            tensor<fp16, [768]> image_encoder_model_network_4_7_convffn_fc1_bias_to_fp16 = const()[name = tensor<string, []>("image_encoder_model_network_4_7_convffn_fc1_bias_to_fp16"), val = tensor<fp16, [768]>(BLOBFILE(path = tensor<string, []>("@model_path/weights/weight.bin"), offset = tensor<uint64, []>(7842560)))];
            tensor<fp16, [1, 768, 16, 16]> input_96_cast_fp16 = conv(bias = image_encoder_model_network_4_7_convffn_fc1_bias_to_fp16, dilations = var_876, groups = var_5, pad = input_96_pad_0, pad_type = input_96_pad_type_0, strides = var_874, weight = image_encoder_model_network_4_7_convffn_fc1_weight_to_fp16, x = input_94_cast_fp16)[name = tensor<string, []>("input_96_cast_fp16")];
            tensor<string, []> var_879_mode_0 = const()[name = tensor<string, []>("op_879_mode_0"), val = tensor<string, []>("EXACT")];
            tensor<fp16, [1, 768, 16, 16]> var_879_cast_fp16 = gelu(mode = var_879_mode_0, x = input_96_cast_fp16)[name = tensor<string, []>("op_879_cast_fp16")];
            tensor<int32, [2]> var_883 = const()[name = tensor<string, []>("op_883"), val = tensor<int32, [2]>([1, 1])];
            tensor<int32, [2]> var_885 = const()[name = tensor<string, []>("op_885"), val = tensor<int32, [2]>([1, 1])];
            tensor<string, []> input_100_pad_type_0 = const()[name = tensor<string, []>("input_100_pad_type_0"), val = tensor<string, []>("custom")];
            tensor<int32, [4]> input_100_pad_0 = const()[name = tensor<string, []>("input_100_pad_0"), val = tensor<int32, [4]>([0, 0, 0, 0])];
            tensor<fp16, [256, 768, 1, 1]> var_889_weight_0_to_fp16 = const()[name = tensor<string, []>("op_889_weight_0_to_fp16"), val = tensor<fp16, [256, 768, 1, 1]>(BLOBFILE(path = tensor<string, []>("@model_path/weights/weight.bin"), offset = tensor<uint64, []>(7844160)))];
            tensor<fp16, [256]> var_889_bias_0_to_fp16 = const()[name = tensor<string, []>("op_889_bias_0_to_fp16"), val = tensor<fp16, [256]>(BLOBFILE(path = tensor<string, []>("@model_path/weights/weight.bin"), offset = tensor<uint64, []>(8237440)))];
            tensor<fp16, [1, 256, 16, 16]> var_889_cast_fp16 = conv(bias = var_889_bias_0_to_fp16, dilations = var_885, groups = var_5, pad = input_100_pad_0, pad_type = input_100_pad_type_0, strides = var_883, weight = var_889_weight_0_to_fp16, x = var_879_cast_fp16)[name = tensor<string, []>("op_889_cast_fp16")];
            tensor<fp16, [1, 256, 16, 16]> var_890_cast_fp16 = add(x = input_90_cast_fp16, y = var_889_cast_fp16)[name = tensor<string, []>("op_890_cast_fp16")];
            tensor<int32, [2]> var_897 = const()[name = tensor<string, []>("op_897"), val = tensor<int32, [2]>([1, 1])];
            tensor<int32, [2]> var_899 = const()[name = tensor<string, []>("op_899"), val = tensor<int32, [2]>([1, 1])];
            tensor<string, []> input_102_pad_type_0 = const()[name = tensor<string, []>("input_102_pad_type_0"), val = tensor<string, []>("custom")];
            tensor<int32, [4]> input_102_pad_0 = const()[name = tensor<string, []>("input_102_pad_0"), val = tensor<int32, [4]>([1, 1, 1, 1])];
            tensor<fp16, [256, 1, 3, 3]> image_encoder_model_network_4_8_token_mixer_reparam_conv_weight_to_fp16 = const()[name = tensor<string, []>("image_encoder_model_network_4_8_token_mixer_reparam_conv_weight_to_fp16"), val = tensor<fp16, [256, 1, 3, 3]>(BLOBFILE(path = tensor<string, []>("@model_path/weights/weight.bin"), offset = tensor<uint64, []>(8238016)))];
            tensor<fp16, [256]> image_encoder_model_network_4_8_token_mixer_reparam_conv_bias_to_fp16 = const()[name = tensor<string, []>("image_encoder_model_network_4_8_token_mixer_reparam_conv_bias_to_fp16"), val = tensor<fp16, [256]>(BLOBFILE(path = tensor<string, []>("@model_path/weights/weight.bin"), offset = tensor<uint64, []>(8242688)))];
            tensor<fp16, [1, 256, 16, 16]> input_102_cast_fp16 = conv(bias = image_encoder_model_network_4_8_token_mixer_reparam_conv_bias_to_fp16, dilations = var_899, groups = var_16, pad = input_102_pad_0, pad_type = input_102_pad_type_0, strides = var_897, weight = image_encoder_model_network_4_8_token_mixer_reparam_conv_weight_to_fp16, x = var_890_cast_fp16)[name = tensor<string, []>("input_102_cast_fp16")];
            tensor<int32, [2]> var_908 = const()[name = tensor<string, []>("op_908"), val = tensor<int32, [2]>([1, 1])];
            tensor<int32, [2]> var_910 = const()[name = tensor<string, []>("op_910"), val = tensor<int32, [2]>([1, 1])];
            tensor<string, []> input_104_pad_type_0 = const()[name = tensor<string, []>("input_104_pad_type_0"), val = tensor<string, []>("custom")];
            tensor<int32, [4]> input_104_pad_0 = const()[name = tensor<string, []>("input_104_pad_0"), val = tensor<int32, [4]>([3, 3, 3, 3])];
            tensor<fp16, [256, 1, 7, 7]> input_106_weight_0_to_fp16 = const()[name = tensor<string, []>("input_106_weight_0_to_fp16"), val = tensor<fp16, [256, 1, 7, 7]>(BLOBFILE(path = tensor<string, []>("@model_path/weights/weight.bin"), offset = tensor<uint64, []>(8243264)))];
            tensor<fp16, [256]> input_106_bias_0_to_fp16 = const()[name = tensor<string, []>("input_106_bias_0_to_fp16"), val = tensor<fp16, [256]>(BLOBFILE(path = tensor<string, []>("@model_path/weights/weight.bin"), offset = tensor<uint64, []>(8268416)))];
            tensor<fp16, [1, 256, 16, 16]> input_106_cast_fp16 = conv(bias = input_106_bias_0_to_fp16, dilations = var_910, groups = var_16, pad = input_104_pad_0, pad_type = input_104_pad_type_0, strides = var_908, weight = input_106_weight_0_to_fp16, x = input_102_cast_fp16)[name = tensor<string, []>("input_106_cast_fp16")];
            tensor<int32, [2]> var_920 = const()[name = tensor<string, []>("op_920"), val = tensor<int32, [2]>([1, 1])];
            tensor<int32, [2]> var_922 = const()[name = tensor<string, []>("op_922"), val = tensor<int32, [2]>([1, 1])];
            tensor<string, []> input_108_pad_type_0 = const()[name = tensor<string, []>("input_108_pad_type_0"), val = tensor<string, []>("custom")];
            tensor<int32, [4]> input_108_pad_0 = const()[name = tensor<string, []>("input_108_pad_0"), val = tensor<int32, [4]>([0, 0, 0, 0])];
            tensor<fp16, [768, 256, 1, 1]> image_encoder_model_network_4_8_convffn_fc1_weight_to_fp16 = const()[name = tensor<string, []>("image_encoder_model_network_4_8_convffn_fc1_weight_to_fp16"), val = tensor<fp16, [768, 256, 1, 1]>(BLOBFILE(path = tensor<string, []>("@model_path/weights/weight.bin"), offset = tensor<uint64, []>(8268992)))];
            tensor<fp16, [768]> image_encoder_model_network_4_8_convffn_fc1_bias_to_fp16 = const()[name = tensor<string, []>("image_encoder_model_network_4_8_convffn_fc1_bias_to_fp16"), val = tensor<fp16, [768]>(BLOBFILE(path = tensor<string, []>("@model_path/weights/weight.bin"), offset = tensor<uint64, []>(8662272)))];
            tensor<fp16, [1, 768, 16, 16]> input_108_cast_fp16 = conv(bias = image_encoder_model_network_4_8_convffn_fc1_bias_to_fp16, dilations = var_922, groups = var_5, pad = input_108_pad_0, pad_type = input_108_pad_type_0, strides = var_920, weight = image_encoder_model_network_4_8_convffn_fc1_weight_to_fp16, x = input_106_cast_fp16)[name = tensor<string, []>("input_108_cast_fp16")];
            tensor<string, []> var_925_mode_0 = const()[name = tensor<string, []>("op_925_mode_0"), val = tensor<string, []>("EXACT")];
            tensor<fp16, [1, 768, 16, 16]> var_925_cast_fp16 = gelu(mode = var_925_mode_0, x = input_108_cast_fp16)[name = tensor<string, []>("op_925_cast_fp16")];
            tensor<int32, [2]> var_929 = const()[name = tensor<string, []>("op_929"), val = tensor<int32, [2]>([1, 1])];
            tensor<int32, [2]> var_931 = const()[name = tensor<string, []>("op_931"), val = tensor<int32, [2]>([1, 1])];
            tensor<string, []> input_112_pad_type_0 = const()[name = tensor<string, []>("input_112_pad_type_0"), val = tensor<string, []>("custom")];
            tensor<int32, [4]> input_112_pad_0 = const()[name = tensor<string, []>("input_112_pad_0"), val = tensor<int32, [4]>([0, 0, 0, 0])];
            tensor<fp16, [256, 768, 1, 1]> var_935_weight_0_to_fp16 = const()[name = tensor<string, []>("op_935_weight_0_to_fp16"), val = tensor<fp16, [256, 768, 1, 1]>(BLOBFILE(path = tensor<string, []>("@model_path/weights/weight.bin"), offset = tensor<uint64, []>(8663872)))];
            tensor<fp16, [256]> var_935_bias_0_to_fp16 = const()[name = tensor<string, []>("op_935_bias_0_to_fp16"), val = tensor<fp16, [256]>(BLOBFILE(path = tensor<string, []>("@model_path/weights/weight.bin"), offset = tensor<uint64, []>(9057152)))];
            tensor<fp16, [1, 256, 16, 16]> var_935_cast_fp16 = conv(bias = var_935_bias_0_to_fp16, dilations = var_931, groups = var_5, pad = input_112_pad_0, pad_type = input_112_pad_type_0, strides = var_929, weight = var_935_weight_0_to_fp16, x = var_925_cast_fp16)[name = tensor<string, []>("op_935_cast_fp16")];
            tensor<fp16, [1, 256, 16, 16]> var_936_cast_fp16 = add(x = input_102_cast_fp16, y = var_935_cast_fp16)[name = tensor<string, []>("op_936_cast_fp16")];
            tensor<int32, [2]> var_943 = const()[name = tensor<string, []>("op_943"), val = tensor<int32, [2]>([1, 1])];
            tensor<int32, [2]> var_945 = const()[name = tensor<string, []>("op_945"), val = tensor<int32, [2]>([1, 1])];
            tensor<string, []> input_141_pad_type_0 = const()[name = tensor<string, []>("input_141_pad_type_0"), val = tensor<string, []>("custom")];
            tensor<int32, [4]> input_141_pad_0 = const()[name = tensor<string, []>("input_141_pad_0"), val = tensor<int32, [4]>([1, 1, 1, 1])];
            tensor<fp16, [256, 1, 3, 3]> image_encoder_model_network_4_9_token_mixer_reparam_conv_weight_to_fp16 = const()[name = tensor<string, []>("image_encoder_model_network_4_9_token_mixer_reparam_conv_weight_to_fp16"), val = tensor<fp16, [256, 1, 3, 3]>(BLOBFILE(path = tensor<string, []>("@model_path/weights/weight.bin"), offset = tensor<uint64, []>(9057728)))];
            tensor<fp16, [256]> image_encoder_model_network_4_9_token_mixer_reparam_conv_bias_to_fp16 = const()[name = tensor<string, []>("image_encoder_model_network_4_9_token_mixer_reparam_conv_bias_to_fp16"), val = tensor<fp16, [256]>(BLOBFILE(path = tensor<string, []>("@model_path/weights/weight.bin"), offset = tensor<uint64, []>(9062400)))];
            tensor<fp16, [1, 256, 16, 16]> input_141_cast_fp16 = conv(bias = image_encoder_model_network_4_9_token_mixer_reparam_conv_bias_to_fp16, dilations = var_945, groups = var_16, pad = input_141_pad_0, pad_type = input_141_pad_type_0, strides = var_943, weight = image_encoder_model_network_4_9_token_mixer_reparam_conv_weight_to_fp16, x = var_936_cast_fp16)[name = tensor<string, []>("input_141_cast_fp16")];
            tensor<int32, [2]> var_954 = const()[name = tensor<string, []>("op_954"), val = tensor<int32, [2]>([1, 1])];
            tensor<int32, [2]> var_956 = const()[name = tensor<string, []>("op_956"), val = tensor<int32, [2]>([1, 1])];
            tensor<string, []> input_119_pad_type_0 = const()[name = tensor<string, []>("input_119_pad_type_0"), val = tensor<string, []>("custom")];
            tensor<int32, [4]> input_119_pad_0 = const()[name = tensor<string, []>("input_119_pad_0"), val = tensor<int32, [4]>([3, 3, 3, 3])];
            tensor<fp16, [256, 1, 7, 7]> input_3_weight_0_to_fp16 = const()[name = tensor<string, []>("input_3_weight_0_to_fp16"), val = tensor<fp16, [256, 1, 7, 7]>(BLOBFILE(path = tensor<string, []>("@model_path/weights/weight.bin"), offset = tensor<uint64, []>(9062976)))];
            tensor<fp16, [256]> input_3_bias_0_to_fp16 = const()[name = tensor<string, []>("input_3_bias_0_to_fp16"), val = tensor<fp16, [256]>(BLOBFILE(path = tensor<string, []>("@model_path/weights/weight.bin"), offset = tensor<uint64, []>(9088128)))];
            tensor<fp16, [1, 256, 16, 16]> input_3_cast_fp16 = conv(bias = input_3_bias_0_to_fp16, dilations = var_956, groups = var_16, pad = input_119_pad_0, pad_type = input_119_pad_type_0, strides = var_954, weight = input_3_weight_0_to_fp16, x = input_141_cast_fp16)[name = tensor<string, []>("input_3_cast_fp16")];
            tensor<int32, [2]> var_966 = const()[name = tensor<string, []>("op_966"), val = tensor<int32, [2]>([1, 1])];
            tensor<int32, [2]> var_968 = const()[name = tensor<string, []>("op_968"), val = tensor<int32, [2]>([1, 1])];
            tensor<string, []> input_137_pad_type_0 = const()[name = tensor<string, []>("input_137_pad_type_0"), val = tensor<string, []>("custom")];
            tensor<int32, [4]> input_137_pad_0 = const()[name = tensor<string, []>("input_137_pad_0"), val = tensor<int32, [4]>([0, 0, 0, 0])];
            tensor<fp16, [768, 256, 1, 1]> image_encoder_model_network_4_9_convffn_fc1_weight_to_fp16 = const()[name = tensor<string, []>("image_encoder_model_network_4_9_convffn_fc1_weight_to_fp16"), val = tensor<fp16, [768, 256, 1, 1]>(BLOBFILE(path = tensor<string, []>("@model_path/weights/weight.bin"), offset = tensor<uint64, []>(9088704)))];
            tensor<fp16, [768]> image_encoder_model_network_4_9_convffn_fc1_bias_to_fp16 = const()[name = tensor<string, []>("image_encoder_model_network_4_9_convffn_fc1_bias_to_fp16"), val = tensor<fp16, [768]>(BLOBFILE(path = tensor<string, []>("@model_path/weights/weight.bin"), offset = tensor<uint64, []>(9481984)))];
            tensor<fp16, [1, 768, 16, 16]> input_137_cast_fp16 = conv(bias = image_encoder_model_network_4_9_convffn_fc1_bias_to_fp16, dilations = var_968, groups = var_5, pad = input_137_pad_0, pad_type = input_137_pad_type_0, strides = var_966, weight = image_encoder_model_network_4_9_convffn_fc1_weight_to_fp16, x = input_3_cast_fp16)[name = tensor<string, []>("input_137_cast_fp16")];
            tensor<string, []> var_971_mode_0 = const()[name = tensor<string, []>("op_971_mode_0"), val = tensor<string, []>("EXACT")];
            tensor<fp16, [1, 768, 16, 16]> var_971_cast_fp16 = gelu(mode = var_971_mode_0, x = input_137_cast_fp16)[name = tensor<string, []>("op_971_cast_fp16")];
            tensor<int32, [2]> var_975 = const()[name = tensor<string, []>("op_975"), val = tensor<int32, [2]>([1, 1])];
            tensor<int32, [2]> var_977 = const()[name = tensor<string, []>("op_977"), val = tensor<int32, [2]>([1, 1])];
            tensor<string, []> input_121_pad_type_0 = const()[name = tensor<string, []>("input_121_pad_type_0"), val = tensor<string, []>("custom")];
            tensor<int32, [4]> input_121_pad_0 = const()[name = tensor<string, []>("input_121_pad_0"), val = tensor<int32, [4]>([0, 0, 0, 0])];
            tensor<fp16, [256, 768, 1, 1]> var_981_weight_0_to_fp16 = const()[name = tensor<string, []>("op_981_weight_0_to_fp16"), val = tensor<fp16, [256, 768, 1, 1]>(BLOBFILE(path = tensor<string, []>("@model_path/weights/weight.bin"), offset = tensor<uint64, []>(9483584)))];
            tensor<fp16, [256]> var_981_bias_0_to_fp16 = const()[name = tensor<string, []>("op_981_bias_0_to_fp16"), val = tensor<fp16, [256]>(BLOBFILE(path = tensor<string, []>("@model_path/weights/weight.bin"), offset = tensor<uint64, []>(9876864)))];
            tensor<fp16, [1, 256, 16, 16]> var_981_cast_fp16 = conv(bias = var_981_bias_0_to_fp16, dilations = var_977, groups = var_5, pad = input_121_pad_0, pad_type = input_121_pad_type_0, strides = var_975, weight = var_981_weight_0_to_fp16, x = var_971_cast_fp16)[name = tensor<string, []>("op_981_cast_fp16")];
            tensor<fp16, [1, 256, 16, 16]> var_982_cast_fp16 = add(x = input_141_cast_fp16, y = var_981_cast_fp16)[name = tensor<string, []>("op_982_cast_fp16")];
            tensor<int32, [2]> var_990 = const()[name = tensor<string, []>("op_990"), val = tensor<int32, [2]>([2, 2])];
            tensor<int32, [2]> var_992 = const()[name = tensor<string, []>("op_992"), val = tensor<int32, [2]>([1, 1])];
            tensor<string, []> x_11_pad_type_0 = const()[name = tensor<string, []>("x_11_pad_type_0"), val = tensor<string, []>("custom")];
            tensor<int32, [4]> x_11_pad_0 = const()[name = tensor<string, []>("x_11_pad_0"), val = tensor<int32, [4]>([3, 3, 3, 3])];
            tensor<fp16, [512, 1, 7, 7]> image_encoder_model_network_5_proj_0_lkb_reparam_weight_to_fp16 = const()[name = tensor<string, []>("image_encoder_model_network_5_proj_0_lkb_reparam_weight_to_fp16"), val = tensor<fp16, [512, 1, 7, 7]>(BLOBFILE(path = tensor<string, []>("@model_path/weights/weight.bin"), offset = tensor<uint64, []>(9877440)))];
            tensor<fp16, [512]> image_encoder_model_network_5_proj_0_lkb_reparam_bias_to_fp16 = const()[name = tensor<string, []>("image_encoder_model_network_5_proj_0_lkb_reparam_bias_to_fp16"), val = tensor<fp16, [512]>(BLOBFILE(path = tensor<string, []>("@model_path/weights/weight.bin"), offset = tensor<uint64, []>(9927680)))];
            tensor<fp16, [1, 512, 8, 8]> x_11_cast_fp16 = conv(bias = image_encoder_model_network_5_proj_0_lkb_reparam_bias_to_fp16, dilations = var_992, groups = var_16, pad = x_11_pad_0, pad_type = x_11_pad_type_0, strides = var_990, weight = image_encoder_model_network_5_proj_0_lkb_reparam_weight_to_fp16, x = var_982_cast_fp16)[name = tensor<string, []>("x_11_cast_fp16")];
            tensor<int32, [2]> var_997 = const()[name = tensor<string, []>("op_997"), val = tensor<int32, [2]>([2, 3])];
            tensor<fp16, [1, 512, 1, 1]> input_139_cast_fp16 = reduce_mean(axes = var_997, keep_dims = var_8, x = x_11_cast_fp16)[name = tensor<string, []>("input_139_cast_fp16")];
            tensor<int32, [2]> var_1001 = const()[name = tensor<string, []>("op_1001"), val = tensor<int32, [2]>([1, 1])];
            tensor<int32, [2]> var_1003 = const()[name = tensor<string, []>("op_1003"), val = tensor<int32, [2]>([1, 1])];
            tensor<string, []> input0_12_pad_type_0 = const()[name = tensor<string, []>("input0_12_pad_type_0"), val = tensor<string, []>("custom")];
            tensor<int32, [4]> input0_12_pad_0 = const()[name = tensor<string, []>("input0_12_pad_0"), val = tensor<int32, [4]>([0, 0, 0, 0])];
            tensor<fp16, [128, 512, 1, 1]> image_encoder_model_network_5_proj_0_se_fc1_weight_to_fp16 = const()[name = tensor<string, []>("image_encoder_model_network_5_proj_0_se_fc1_weight_to_fp16"), val = tensor<fp16, [128, 512, 1, 1]>(BLOBFILE(path = tensor<string, []>("@model_path/weights/weight.bin"), offset = tensor<uint64, []>(9928768)))];
            tensor<fp16, [128]> image_encoder_model_network_5_proj_0_se_fc1_bias_to_fp16 = const()[name = tensor<string, []>("image_encoder_model_network_5_proj_0_se_fc1_bias_to_fp16"), val = tensor<fp16, [128]>(BLOBFILE(path = tensor<string, []>("@model_path/weights/weight.bin"), offset = tensor<uint64, []>(10059904)))];
            tensor<fp16, [1, 128, 1, 1]> input0_12_cast_fp16 = conv(bias = image_encoder_model_network_5_proj_0_se_fc1_bias_to_fp16, dilations = var_1003, groups = var_5, pad = input0_12_pad_0, pad_type = input0_12_pad_type_0, strides = var_1001, weight = image_encoder_model_network_5_proj_0_se_fc1_weight_to_fp16, x = input_139_cast_fp16)[name = tensor<string, []>("input0_12_cast_fp16")];
            tensor<fp16, [1, 128, 1, 1]> var_1006_cast_fp16 = relu(x = input0_12_cast_fp16)[name = tensor<string, []>("op_1006_cast_fp16")];
            tensor<int32, [2]> var_1009 = const()[name = tensor<string, []>("op_1009"), val = tensor<int32, [2]>([1, 1])];
            tensor<int32, [2]> var_1011 = const()[name = tensor<string, []>("op_1011"), val = tensor<int32, [2]>([1, 1])];
            tensor<string, []> x_13_pad_type_0 = const()[name = tensor<string, []>("x_13_pad_type_0"), val = tensor<string, []>("custom")];
            tensor<int32, [4]> x_13_pad_0 = const()[name = tensor<string, []>("x_13_pad_0"), val = tensor<int32, [4]>([0, 0, 0, 0])];
            tensor<fp16, [512, 128, 1, 1]> image_encoder_model_network_5_proj_0_se_fc2_weight_to_fp16 = const()[name = tensor<string, []>("image_encoder_model_network_5_proj_0_se_fc2_weight_to_fp16"), val = tensor<fp16, [512, 128, 1, 1]>(BLOBFILE(path = tensor<string, []>("@model_path/weights/weight.bin"), offset = tensor<uint64, []>(10060224)))];
            tensor<fp16, [512]> image_encoder_model_network_5_proj_0_se_fc2_bias_to_fp16 = const()[name = tensor<string, []>("image_encoder_model_network_5_proj_0_se_fc2_bias_to_fp16"), val = tensor<fp16, [512]>(BLOBFILE(path = tensor<string, []>("@model_path/weights/weight.bin"), offset = tensor<uint64, []>(10191360)))];
            tensor<fp16, [1, 512, 1, 1]> x_13_cast_fp16 = conv(bias = image_encoder_model_network_5_proj_0_se_fc2_bias_to_fp16, dilations = var_1011, groups = var_5, pad = x_13_pad_0, pad_type = x_13_pad_type_0, strides = var_1009, weight = image_encoder_model_network_5_proj_0_se_fc2_weight_to_fp16, x = var_1006_cast_fp16)[name = tensor<string, []>("x_13_cast_fp16")];
            tensor<fp16, [1, 512, 1, 1]> var_1014_cast_fp16 = sigmoid(x = x_13_cast_fp16)[name = tensor<string, []>("op_1014_cast_fp16")];
            tensor<fp16, [1, 512, 8, 8]> input0_10_cast_fp16 = mul(x = x_11_cast_fp16, y = var_1014_cast_fp16)[name = tensor<string, []>("input0_10_cast_fp16")];
            tensor<string, []> var_1016_mode_0 = const()[name = tensor<string, []>("op_1016_mode_0"), val = tensor<string, []>("EXACT")];
            tensor<fp16, [1, 512, 8, 8]> var_1016_cast_fp16 = gelu(mode = var_1016_mode_0, x = input0_10_cast_fp16)[name = tensor<string, []>("op_1016_cast_fp16")];
            tensor<int32, [2]> var_1020 = const()[name = tensor<string, []>("op_1020"), val = tensor<int32, [2]>([1, 1])];
            tensor<int32, [2]> var_1022 = const()[name = tensor<string, []>("op_1022"), val = tensor<int32, [2]>([1, 1])];
            tensor<string, []> input_123_pad_type_0 = const()[name = tensor<string, []>("input_123_pad_type_0"), val = tensor<string, []>("custom")];
            tensor<int32, [4]> input_123_pad_0 = const()[name = tensor<string, []>("input_123_pad_0"), val = tensor<int32, [4]>([0, 0, 0, 0])];
            tensor<fp16, [512, 512, 1, 1]> image_encoder_model_network_5_proj_1_reparam_conv_weight_to_fp16 = const()[name = tensor<string, []>("image_encoder_model_network_5_proj_1_reparam_conv_weight_to_fp16"), val = tensor<fp16, [512, 512, 1, 1]>(BLOBFILE(path = tensor<string, []>("@model_path/weights/weight.bin"), offset = tensor<uint64, []>(10192448)))];
            tensor<fp16, [512]> image_encoder_model_network_5_proj_1_reparam_conv_bias_to_fp16 = const()[name = tensor<string, []>("image_encoder_model_network_5_proj_1_reparam_conv_bias_to_fp16"), val = tensor<fp16, [512]>(BLOBFILE(path = tensor<string, []>("@model_path/weights/weight.bin"), offset = tensor<uint64, []>(10716800)))];
            tensor<fp16, [1, 512, 8, 8]> input_123_cast_fp16 = conv(bias = image_encoder_model_network_5_proj_1_reparam_conv_bias_to_fp16, dilations = var_1022, groups = var_5, pad = input_123_pad_0, pad_type = input_123_pad_type_0, strides = var_1020, weight = image_encoder_model_network_5_proj_1_reparam_conv_weight_to_fp16, x = var_1016_cast_fp16)[name = tensor<string, []>("input_123_cast_fp16")];
            tensor<string, []> var_1025_mode_0 = const()[name = tensor<string, []>("op_1025_mode_0"), val = tensor<string, []>("EXACT")];
            tensor<fp16, [1, 512, 8, 8]> var_1025_cast_fp16 = gelu(mode = var_1025_mode_0, x = input_123_cast_fp16)[name = tensor<string, []>("op_1025_cast_fp16")];
            tensor<int32, [2]> var_1029 = const()[name = tensor<string, []>("op_1029"), val = tensor<int32, [2]>([1, 1])];
            tensor<int32, [2]> var_1031 = const()[name = tensor<string, []>("op_1031"), val = tensor<int32, [2]>([1, 1])];
            tensor<string, []> input_147_pad_type_0 = const()[name = tensor<string, []>("input_147_pad_type_0"), val = tensor<string, []>("custom")];
            tensor<int32, [4]> input_147_pad_0 = const()[name = tensor<string, []>("input_147_pad_0"), val = tensor<int32, [4]>([3, 3, 3, 3])];
            tensor<fp16, [512, 1, 7, 7]> image_encoder_model_network_6_reparam_conv_weight_to_fp16 = const()[name = tensor<string, []>("image_encoder_model_network_6_reparam_conv_weight_to_fp16"), val = tensor<fp16, [512, 1, 7, 7]>(BLOBFILE(path = tensor<string, []>("@model_path/weights/weight.bin"), offset = tensor<uint64, []>(10717888)))];
            tensor<fp16, [512]> image_encoder_model_network_6_reparam_conv_bias_to_fp16 = const()[name = tensor<string, []>("image_encoder_model_network_6_reparam_conv_bias_to_fp16"), val = tensor<fp16, [512]>(BLOBFILE(path = tensor<string, []>("@model_path/weights/weight.bin"), offset = tensor<uint64, []>(10768128)))];
            tensor<fp16, [1, 512, 8, 8]> input_147_cast_fp16 = conv(bias = image_encoder_model_network_6_reparam_conv_bias_to_fp16, dilations = var_1031, groups = var_17, pad = input_147_pad_0, pad_type = input_147_pad_type_0, strides = var_1029, weight = image_encoder_model_network_6_reparam_conv_weight_to_fp16, x = var_1025_cast_fp16)[name = tensor<string, []>("input_147_cast_fp16")];
            tensor<fp16, [512]> image_encoder_model_network_7_0_norm_running_mean_to_fp16 = const()[name = tensor<string, []>("image_encoder_model_network_7_0_norm_running_mean_to_fp16"), val = tensor<fp16, [512]>(BLOBFILE(path = tensor<string, []>("@model_path/weights/weight.bin"), offset = tensor<uint64, []>(10769216)))];
            tensor<fp16, [512]> image_encoder_model_network_7_0_norm_running_var_to_fp16 = const()[name = tensor<string, []>("image_encoder_model_network_7_0_norm_running_var_to_fp16"), val = tensor<fp16, [512]>(BLOBFILE(path = tensor<string, []>("@model_path/weights/weight.bin"), offset = tensor<uint64, []>(10770304)))];
            tensor<fp16, [512]> image_encoder_model_network_7_0_norm_weight_to_fp16 = const()[name = tensor<string, []>("image_encoder_model_network_7_0_norm_weight_to_fp16"), val = tensor<fp16, [512]>(BLOBFILE(path = tensor<string, []>("@model_path/weights/weight.bin"), offset = tensor<uint64, []>(10771392)))];
            tensor<fp16, [512]> image_encoder_model_network_7_0_norm_bias_to_fp16 = const()[name = tensor<string, []>("image_encoder_model_network_7_0_norm_bias_to_fp16"), val = tensor<fp16, [512]>(BLOBFILE(path = tensor<string, []>("@model_path/weights/weight.bin"), offset = tensor<uint64, []>(10772480)))];
            tensor<fp16, []> var_13_to_fp16 = const()[name = tensor<string, []>("op_13_to_fp16"), val = tensor<fp16, []>(0x1.5p-17)];
            tensor<fp16, [1, 512, 8, 8]> x_3_cast_fp16 = batch_norm(beta = image_encoder_model_network_7_0_norm_bias_to_fp16, epsilon = var_13_to_fp16, gamma = image_encoder_model_network_7_0_norm_weight_to_fp16, mean = image_encoder_model_network_7_0_norm_running_mean_to_fp16, variance = image_encoder_model_network_7_0_norm_running_var_to_fp16, x = input_147_cast_fp16)[name = tensor<string, []>("x_3_cast_fp16")];
            tensor<int32, [3]> concat_0 = const()[name = tensor<string, []>("concat_0"), val = tensor<int32, [3]>([1, 512, 64])];
            tensor<fp16, [1, 512, 64]> var_1057_cast_fp16 = reshape(shape = concat_0, x = x_3_cast_fp16)[name = tensor<string, []>("op_1057_cast_fp16")];
            tensor<int32, [3]> input_7_perm_0 = const()[name = tensor<string, []>("input_7_perm_0"), val = tensor<int32, [3]>([0, -1, -2])];
            tensor<fp16, [1536, 512]> image_encoder_model_network_7_0_token_mixer_qkv_weight_to_fp16 = const()[name = tensor<string, []>("image_encoder_model_network_7_0_token_mixer_qkv_weight_to_fp16"), val = tensor<fp16, [1536, 512]>(BLOBFILE(path = tensor<string, []>("@model_path/weights/weight.bin"), offset = tensor<uint64, []>(10773568)))];
            tensor<fp16, [1536]> linear_0_bias_0_to_fp16 = const()[name = tensor<string, []>("linear_0_bias_0_to_fp16"), val = tensor<fp16, [1536]>(BLOBFILE(path = tensor<string, []>("@model_path/weights/weight.bin"), offset = tensor<uint64, []>(12346496)))];
            tensor<fp16, [1, 64, 512]> transpose_9 = transpose(perm = input_7_perm_0, x = var_1057_cast_fp16)[name = tensor<string, []>("transpose_9")];
            tensor<fp16, [1, 64, 1536]> linear_0_cast_fp16 = linear(bias = linear_0_bias_0_to_fp16, weight = image_encoder_model_network_7_0_token_mixer_qkv_weight_to_fp16, x = transpose_9)[name = tensor<string, []>("linear_0_cast_fp16")];
            tensor<int32, [5]> var_1061 = const()[name = tensor<string, []>("op_1061"), val = tensor<int32, [5]>([1, 64, 3, 16, 32])];
            tensor<fp16, [1, 64, 3, 16, 32]> var_1062_cast_fp16 = reshape(shape = var_1061, x = linear_0_cast_fp16)[name = tensor<string, []>("op_1062_cast_fp16")];
            tensor<int32, [5]> var_1063 = const()[name = tensor<string, []>("op_1063"), val = tensor<int32, [5]>([2, 0, 3, 1, 4])];
            tensor<int32, [3]> var_1065_split_sizes_0 = const()[name = tensor<string, []>("op_1065_split_sizes_0"), val = tensor<int32, [3]>([1, 1, 1])];
            tensor<int32, []> var_1065_axis_0 = const()[name = tensor<string, []>("op_1065_axis_0"), val = tensor<int32, []>(0)];
            tensor<fp16, [3, 1, 16, 64, 32]> transpose_8 = transpose(perm = var_1063, x = var_1062_cast_fp16)[name = tensor<string, []>("transpose_8")];
            tensor<fp16, [1, 1, 16, 64, 32]> var_1065_cast_fp16_0, tensor<fp16, [1, 1, 16, 64, 32]> var_1065_cast_fp16_1, tensor<fp16, [1, 1, 16, 64, 32]> var_1065_cast_fp16_2 = split(axis = var_1065_axis_0, split_sizes = var_1065_split_sizes_0, x = transpose_8)[name = tensor<string, []>("op_1065_cast_fp16")];
            tensor<int32, [1]> squeeze_0_axes_0 = const()[name = tensor<string, []>("squeeze_0_axes_0"), val = tensor<int32, [1]>([0])];
            tensor<fp16, [1, 16, 64, 32]> squeeze_0_cast_fp16 = squeeze(axes = squeeze_0_axes_0, x = var_1065_cast_fp16_0)[name = tensor<string, []>("squeeze_0_cast_fp16")];
            tensor<int32, [1]> squeeze_1_axes_0 = const()[name = tensor<string, []>("squeeze_1_axes_0"), val = tensor<int32, [1]>([0])];
            tensor<fp16, [1, 16, 64, 32]> squeeze_1_cast_fp16 = squeeze(axes = squeeze_1_axes_0, x = var_1065_cast_fp16_1)[name = tensor<string, []>("squeeze_1_cast_fp16")];
            tensor<int32, [1]> squeeze_2_axes_0 = const()[name = tensor<string, []>("squeeze_2_axes_0"), val = tensor<int32, [1]>([0])];
            tensor<fp16, [1, 16, 64, 32]> squeeze_2_cast_fp16 = squeeze(axes = squeeze_2_axes_0, x = var_1065_cast_fp16_2)[name = tensor<string, []>("squeeze_2_cast_fp16")];
            tensor<fp16, []> var_1069_to_fp16 = const()[name = tensor<string, []>("op_1069_to_fp16"), val = tensor<fp16, []>(0x1.6ap-3)];
            tensor<fp16, [1, 16, 64, 32]> var_1070_cast_fp16 = mul(x = squeeze_0_cast_fp16, y = var_1069_to_fp16)[name = tensor<string, []>("op_1070_cast_fp16")];
            tensor<int32, [4]> var_1071_perm_0 = const()[name = tensor<string, []>("op_1071_perm_0"), val = tensor<int32, [4]>([0, 1, -1, -2])];
            tensor<bool, []> attn_2_transpose_x_0 = const()[name = tensor<string, []>("attn_2_transpose_x_0"), val = tensor<bool, []>(false)];
            tensor<bool, []> attn_2_transpose_y_0 = const()[name = tensor<string, []>("attn_2_transpose_y_0"), val = tensor<bool, []>(false)];
            tensor<fp16, [1, 16, 32, 64]> transpose_7 = transpose(perm = var_1071_perm_0, x = squeeze_1_cast_fp16)[name = tensor<string, []>("transpose_7")];
            tensor<fp16, [1, 16, 64, 64]> attn_2_cast_fp16 = matmul(transpose_x = attn_2_transpose_x_0, transpose_y = attn_2_transpose_y_0, x = var_1070_cast_fp16, y = transpose_7)[name = tensor<string, []>("attn_2_cast_fp16")];
            tensor<fp16, [1, 16, 64, 64]> input0_3_cast_fp16 = softmax(axis = var_21, x = attn_2_cast_fp16)[name = tensor<string, []>("input0_3_cast_fp16")];
            tensor<bool, []> var_1075_transpose_x_0 = const()[name = tensor<string, []>("op_1075_transpose_x_0"), val = tensor<bool, []>(false)];
            tensor<bool, []> var_1075_transpose_y_0 = const()[name = tensor<string, []>("op_1075_transpose_y_0"), val = tensor<bool, []>(false)];
            tensor<fp16, [1, 16, 64, 32]> var_1075_cast_fp16 = matmul(transpose_x = var_1075_transpose_x_0, transpose_y = var_1075_transpose_y_0, x = input0_3_cast_fp16, y = squeeze_2_cast_fp16)[name = tensor<string, []>("op_1075_cast_fp16")];
            tensor<int32, [4]> var_1076_perm_0 = const()[name = tensor<string, []>("op_1076_perm_0"), val = tensor<int32, [4]>([0, 2, 1, 3])];
            tensor<int32, [3]> var_1077 = const()[name = tensor<string, []>("op_1077"), val = tensor<int32, [3]>([1, 64, 512])];
            tensor<fp16, [1, 64, 16, 32]> transpose_6 = transpose(perm = var_1076_perm_0, x = var_1075_cast_fp16)[name = tensor<string, []>("transpose_6")];
            tensor<fp16, [1, 64, 512]> input1_2_cast_fp16 = reshape(shape = var_1077, x = transpose_6)[name = tensor<string, []>("input1_2_cast_fp16")];
            tensor<fp16, [512, 512]> image_encoder_model_network_7_0_token_mixer_proj_weight_to_fp16 = const()[name = tensor<string, []>("image_encoder_model_network_7_0_token_mixer_proj_weight_to_fp16"), val = tensor<fp16, [512, 512]>(BLOBFILE(path = tensor<string, []>("@model_path/weights/weight.bin"), offset = tensor<uint64, []>(12349632)))];
            tensor<fp16, [512]> image_encoder_model_network_7_0_token_mixer_proj_bias_to_fp16 = const()[name = tensor<string, []>("image_encoder_model_network_7_0_token_mixer_proj_bias_to_fp16"), val = tensor<fp16, [512]>(BLOBFILE(path = tensor<string, []>("@model_path/weights/weight.bin"), offset = tensor<uint64, []>(12873984)))];
            tensor<fp16, [1, 64, 512]> linear_1_cast_fp16 = linear(bias = image_encoder_model_network_7_0_token_mixer_proj_bias_to_fp16, weight = image_encoder_model_network_7_0_token_mixer_proj_weight_to_fp16, x = input1_2_cast_fp16)[name = tensor<string, []>("linear_1_cast_fp16")];
            tensor<int32, [3]> var_1083_perm_0 = const()[name = tensor<string, []>("op_1083_perm_0"), val = tensor<int32, [3]>([0, -1, -2])];
            tensor<int32, [4]> var_1084 = const()[name = tensor<string, []>("op_1084"), val = tensor<int32, [4]>([1, 512, 8, 8])];
            tensor<fp16, [1, 512, 64]> transpose_5 = transpose(perm = var_1083_perm_0, x = linear_1_cast_fp16)[name = tensor<string, []>("transpose_5")];
            tensor<fp16, [1, 512, 8, 8]> var_1085_cast_fp16 = reshape(shape = var_1084, x = transpose_5)[name = tensor<string, []>("op_1085_cast_fp16")];
            tensor<fp16, [512, 1, 1]> image_encoder_model_network_7_0_layer_scale_1_to_fp16 = const()[name = tensor<string, []>("image_encoder_model_network_7_0_layer_scale_1_to_fp16"), val = tensor<fp16, [512, 1, 1]>(BLOBFILE(path = tensor<string, []>("@model_path/weights/weight.bin"), offset = tensor<uint64, []>(12875072)))];
            tensor<fp16, [1, 512, 8, 8]> var_1086_cast_fp16 = mul(x = image_encoder_model_network_7_0_layer_scale_1_to_fp16, y = var_1085_cast_fp16)[name = tensor<string, []>("op_1086_cast_fp16")];
            tensor<fp16, [1, 512, 8, 8]> input_9_cast_fp16 = add(x = input_147_cast_fp16, y = var_1086_cast_fp16)[name = tensor<string, []>("input_9_cast_fp16")];
            tensor<int32, [2]> var_1094 = const()[name = tensor<string, []>("op_1094"), val = tensor<int32, [2]>([1, 1])];
            tensor<int32, [2]> var_1096 = const()[name = tensor<string, []>("op_1096"), val = tensor<int32, [2]>([1, 1])];
            tensor<string, []> input0_5_pad_type_0 = const()[name = tensor<string, []>("input0_5_pad_type_0"), val = tensor<string, []>("custom")];
            tensor<int32, [4]> input0_5_pad_0 = const()[name = tensor<string, []>("input0_5_pad_0"), val = tensor<int32, [4]>([3, 3, 3, 3])];
            tensor<fp16, [512, 1, 7, 7]> input_11_weight_0_to_fp16 = const()[name = tensor<string, []>("input_11_weight_0_to_fp16"), val = tensor<fp16, [512, 1, 7, 7]>(BLOBFILE(path = tensor<string, []>("@model_path/weights/weight.bin"), offset = tensor<uint64, []>(12876160)))];
            tensor<fp16, [512]> input_11_bias_0_to_fp16 = const()[name = tensor<string, []>("input_11_bias_0_to_fp16"), val = tensor<fp16, [512]>(BLOBFILE(path = tensor<string, []>("@model_path/weights/weight.bin"), offset = tensor<uint64, []>(12926400)))];
            tensor<fp16, [1, 512, 8, 8]> input_11_cast_fp16 = conv(bias = input_11_bias_0_to_fp16, dilations = var_1096, groups = var_17, pad = input0_5_pad_0, pad_type = input0_5_pad_type_0, strides = var_1094, weight = input_11_weight_0_to_fp16, x = input_9_cast_fp16)[name = tensor<string, []>("input_11_cast_fp16")];
            tensor<int32, [2]> var_1106 = const()[name = tensor<string, []>("op_1106"), val = tensor<int32, [2]>([1, 1])];
            tensor<int32, [2]> var_1108 = const()[name = tensor<string, []>("op_1108"), val = tensor<int32, [2]>([1, 1])];
            tensor<string, []> input_13_pad_type_0 = const()[name = tensor<string, []>("input_13_pad_type_0"), val = tensor<string, []>("custom")];
            tensor<int32, [4]> input_13_pad_0 = const()[name = tensor<string, []>("input_13_pad_0"), val = tensor<int32, [4]>([0, 0, 0, 0])];
            tensor<fp16, [1536, 512, 1, 1]> image_encoder_model_network_7_0_convffn_fc1_weight_to_fp16 = const()[name = tensor<string, []>("image_encoder_model_network_7_0_convffn_fc1_weight_to_fp16"), val = tensor<fp16, [1536, 512, 1, 1]>(BLOBFILE(path = tensor<string, []>("@model_path/weights/weight.bin"), offset = tensor<uint64, []>(12927488)))];
            tensor<fp16, [1536]> image_encoder_model_network_7_0_convffn_fc1_bias_to_fp16 = const()[name = tensor<string, []>("image_encoder_model_network_7_0_convffn_fc1_bias_to_fp16"), val = tensor<fp16, [1536]>(BLOBFILE(path = tensor<string, []>("@model_path/weights/weight.bin"), offset = tensor<uint64, []>(14500416)))];
            tensor<fp16, [1, 1536, 8, 8]> input_13_cast_fp16 = conv(bias = image_encoder_model_network_7_0_convffn_fc1_bias_to_fp16, dilations = var_1108, groups = var_5, pad = input_13_pad_0, pad_type = input_13_pad_type_0, strides = var_1106, weight = image_encoder_model_network_7_0_convffn_fc1_weight_to_fp16, x = input_11_cast_fp16)[name = tensor<string, []>("input_13_cast_fp16")];
            tensor<string, []> var_1111_mode_0 = const()[name = tensor<string, []>("op_1111_mode_0"), val = tensor<string, []>("EXACT")];
            tensor<fp16, [1, 1536, 8, 8]> var_1111_cast_fp16 = gelu(mode = var_1111_mode_0, x = input_13_cast_fp16)[name = tensor<string, []>("op_1111_cast_fp16")];
            tensor<int32, [2]> var_1115 = const()[name = tensor<string, []>("op_1115"), val = tensor<int32, [2]>([1, 1])];
            tensor<int32, [2]> var_1117 = const()[name = tensor<string, []>("op_1117"), val = tensor<int32, [2]>([1, 1])];
            tensor<string, []> input_17_pad_type_0 = const()[name = tensor<string, []>("input_17_pad_type_0"), val = tensor<string, []>("custom")];
            tensor<int32, [4]> input_17_pad_0 = const()[name = tensor<string, []>("input_17_pad_0"), val = tensor<int32, [4]>([0, 0, 0, 0])];
            tensor<fp16, [512, 1536, 1, 1]> var_1121_weight_0_to_fp16 = const()[name = tensor<string, []>("op_1121_weight_0_to_fp16"), val = tensor<fp16, [512, 1536, 1, 1]>(BLOBFILE(path = tensor<string, []>("@model_path/weights/weight.bin"), offset = tensor<uint64, []>(14503552)))];
            tensor<fp16, [512]> var_1121_bias_0_to_fp16 = const()[name = tensor<string, []>("op_1121_bias_0_to_fp16"), val = tensor<fp16, [512]>(BLOBFILE(path = tensor<string, []>("@model_path/weights/weight.bin"), offset = tensor<uint64, []>(16076480)))];
            tensor<fp16, [1, 512, 8, 8]> var_1121_cast_fp16 = conv(bias = var_1121_bias_0_to_fp16, dilations = var_1117, groups = var_5, pad = input_17_pad_0, pad_type = input_17_pad_type_0, strides = var_1115, weight = var_1121_weight_0_to_fp16, x = var_1111_cast_fp16)[name = tensor<string, []>("op_1121_cast_fp16")];
            tensor<fp16, [1, 512, 8, 8]> var_1122_cast_fp16 = add(x = input_9_cast_fp16, y = var_1121_cast_fp16)[name = tensor<string, []>("op_1122_cast_fp16")];
            tensor<fp16, [512]> image_encoder_model_network_7_1_norm_running_mean_to_fp16 = const()[name = tensor<string, []>("image_encoder_model_network_7_1_norm_running_mean_to_fp16"), val = tensor<fp16, [512]>(BLOBFILE(path = tensor<string, []>("@model_path/weights/weight.bin"), offset = tensor<uint64, []>(16077568)))];
            tensor<fp16, [512]> image_encoder_model_network_7_1_norm_running_var_to_fp16 = const()[name = tensor<string, []>("image_encoder_model_network_7_1_norm_running_var_to_fp16"), val = tensor<fp16, [512]>(BLOBFILE(path = tensor<string, []>("@model_path/weights/weight.bin"), offset = tensor<uint64, []>(16078656)))];
            tensor<fp16, [512]> image_encoder_model_network_7_1_norm_weight_to_fp16 = const()[name = tensor<string, []>("image_encoder_model_network_7_1_norm_weight_to_fp16"), val = tensor<fp16, [512]>(BLOBFILE(path = tensor<string, []>("@model_path/weights/weight.bin"), offset = tensor<uint64, []>(16079744)))];
            tensor<fp16, [512]> image_encoder_model_network_7_1_norm_bias_to_fp16 = const()[name = tensor<string, []>("image_encoder_model_network_7_1_norm_bias_to_fp16"), val = tensor<fp16, [512]>(BLOBFILE(path = tensor<string, []>("@model_path/weights/weight.bin"), offset = tensor<uint64, []>(16080832)))];
            tensor<fp16, [1, 512, 8, 8]> x_17_cast_fp16 = batch_norm(beta = image_encoder_model_network_7_1_norm_bias_to_fp16, epsilon = var_13_to_fp16, gamma = image_encoder_model_network_7_1_norm_weight_to_fp16, mean = image_encoder_model_network_7_1_norm_running_mean_to_fp16, variance = image_encoder_model_network_7_1_norm_running_var_to_fp16, x = var_1122_cast_fp16)[name = tensor<string, []>("x_17_cast_fp16")];
            tensor<int32, [3]> concat_1 = const()[name = tensor<string, []>("concat_1"), val = tensor<int32, [3]>([1, 512, 64])];
            tensor<fp16, [1, 512, 64]> var_1144_cast_fp16 = reshape(shape = concat_1, x = x_17_cast_fp16)[name = tensor<string, []>("op_1144_cast_fp16")];
            tensor<int32, [3]> input_5_perm_0 = const()[name = tensor<string, []>("input_5_perm_0"), val = tensor<int32, [3]>([0, -1, -2])];
            tensor<fp16, [1536, 512]> image_encoder_model_network_7_1_token_mixer_qkv_weight_to_fp16 = const()[name = tensor<string, []>("image_encoder_model_network_7_1_token_mixer_qkv_weight_to_fp16"), val = tensor<fp16, [1536, 512]>(BLOBFILE(path = tensor<string, []>("@model_path/weights/weight.bin"), offset = tensor<uint64, []>(16081920)))];
            tensor<fp16, [1, 64, 512]> transpose_4 = transpose(perm = input_5_perm_0, x = var_1144_cast_fp16)[name = tensor<string, []>("transpose_4")];
            tensor<fp16, [1, 64, 1536]> linear_2_cast_fp16 = linear(bias = linear_0_bias_0_to_fp16, weight = image_encoder_model_network_7_1_token_mixer_qkv_weight_to_fp16, x = transpose_4)[name = tensor<string, []>("linear_2_cast_fp16")];
            tensor<int32, [5]> var_1148 = const()[name = tensor<string, []>("op_1148"), val = tensor<int32, [5]>([1, 64, 3, 16, 32])];
            tensor<fp16, [1, 64, 3, 16, 32]> var_1149_cast_fp16 = reshape(shape = var_1148, x = linear_2_cast_fp16)[name = tensor<string, []>("op_1149_cast_fp16")];
            tensor<int32, [5]> var_1150 = const()[name = tensor<string, []>("op_1150"), val = tensor<int32, [5]>([2, 0, 3, 1, 4])];
            tensor<int32, [3]> var_1152_split_sizes_0 = const()[name = tensor<string, []>("op_1152_split_sizes_0"), val = tensor<int32, [3]>([1, 1, 1])];
            tensor<int32, []> var_1152_axis_0 = const()[name = tensor<string, []>("op_1152_axis_0"), val = tensor<int32, []>(0)];
            tensor<fp16, [3, 1, 16, 64, 32]> transpose_3 = transpose(perm = var_1150, x = var_1149_cast_fp16)[name = tensor<string, []>("transpose_3")];
            tensor<fp16, [1, 1, 16, 64, 32]> var_1152_cast_fp16_0, tensor<fp16, [1, 1, 16, 64, 32]> var_1152_cast_fp16_1, tensor<fp16, [1, 1, 16, 64, 32]> var_1152_cast_fp16_2 = split(axis = var_1152_axis_0, split_sizes = var_1152_split_sizes_0, x = transpose_3)[name = tensor<string, []>("op_1152_cast_fp16")];
            tensor<int32, [1]> squeeze_3_axes_0 = const()[name = tensor<string, []>("squeeze_3_axes_0"), val = tensor<int32, [1]>([0])];
            tensor<fp16, [1, 16, 64, 32]> squeeze_3_cast_fp16 = squeeze(axes = squeeze_3_axes_0, x = var_1152_cast_fp16_0)[name = tensor<string, []>("squeeze_3_cast_fp16")];
            tensor<int32, [1]> squeeze_4_axes_0 = const()[name = tensor<string, []>("squeeze_4_axes_0"), val = tensor<int32, [1]>([0])];
            tensor<fp16, [1, 16, 64, 32]> squeeze_4_cast_fp16 = squeeze(axes = squeeze_4_axes_0, x = var_1152_cast_fp16_1)[name = tensor<string, []>("squeeze_4_cast_fp16")];
            tensor<int32, [1]> squeeze_5_axes_0 = const()[name = tensor<string, []>("squeeze_5_axes_0"), val = tensor<int32, [1]>([0])];
            tensor<fp16, [1, 16, 64, 32]> squeeze_5_cast_fp16 = squeeze(axes = squeeze_5_axes_0, x = var_1152_cast_fp16_2)[name = tensor<string, []>("squeeze_5_cast_fp16")];
            tensor<fp16, []> var_1156_to_fp16 = const()[name = tensor<string, []>("op_1156_to_fp16"), val = tensor<fp16, []>(0x1.6ap-3)];
            tensor<fp16, [1, 16, 64, 32]> var_1157_cast_fp16 = mul(x = squeeze_3_cast_fp16, y = var_1156_to_fp16)[name = tensor<string, []>("op_1157_cast_fp16")];
            tensor<int32, [4]> var_1158_perm_0 = const()[name = tensor<string, []>("op_1158_perm_0"), val = tensor<int32, [4]>([0, 1, -1, -2])];
            tensor<bool, []> attn_1_transpose_x_0 = const()[name = tensor<string, []>("attn_1_transpose_x_0"), val = tensor<bool, []>(false)];
            tensor<bool, []> attn_1_transpose_y_0 = const()[name = tensor<string, []>("attn_1_transpose_y_0"), val = tensor<bool, []>(false)];
            tensor<fp16, [1, 16, 32, 64]> transpose_2 = transpose(perm = var_1158_perm_0, x = squeeze_4_cast_fp16)[name = tensor<string, []>("transpose_2")];
            tensor<fp16, [1, 16, 64, 64]> attn_1_cast_fp16 = matmul(transpose_x = attn_1_transpose_x_0, transpose_y = attn_1_transpose_y_0, x = var_1157_cast_fp16, y = transpose_2)[name = tensor<string, []>("attn_1_cast_fp16")];
            tensor<fp16, [1, 16, 64, 64]> input0_16_cast_fp16 = softmax(axis = var_21, x = attn_1_cast_fp16)[name = tensor<string, []>("input0_16_cast_fp16")];
            tensor<bool, []> var_1162_transpose_x_0 = const()[name = tensor<string, []>("op_1162_transpose_x_0"), val = tensor<bool, []>(false)];
            tensor<bool, []> var_1162_transpose_y_0 = const()[name = tensor<string, []>("op_1162_transpose_y_0"), val = tensor<bool, []>(false)];
            tensor<fp16, [1, 16, 64, 32]> var_1162_cast_fp16 = matmul(transpose_x = var_1162_transpose_x_0, transpose_y = var_1162_transpose_y_0, x = input0_16_cast_fp16, y = squeeze_5_cast_fp16)[name = tensor<string, []>("op_1162_cast_fp16")];
            tensor<int32, [4]> var_1163_perm_0 = const()[name = tensor<string, []>("op_1163_perm_0"), val = tensor<int32, [4]>([0, 2, 1, 3])];
            tensor<int32, [3]> var_1164 = const()[name = tensor<string, []>("op_1164"), val = tensor<int32, [3]>([1, 64, 512])];
            tensor<fp16, [1, 64, 16, 32]> transpose_1 = transpose(perm = var_1163_perm_0, x = var_1162_cast_fp16)[name = tensor<string, []>("transpose_1")];
            tensor<fp16, [1, 64, 512]> input1_1_cast_fp16 = reshape(shape = var_1164, x = transpose_1)[name = tensor<string, []>("input1_1_cast_fp16")];
            tensor<fp16, [512, 512]> image_encoder_model_network_7_1_token_mixer_proj_weight_to_fp16 = const()[name = tensor<string, []>("image_encoder_model_network_7_1_token_mixer_proj_weight_to_fp16"), val = tensor<fp16, [512, 512]>(BLOBFILE(path = tensor<string, []>("@model_path/weights/weight.bin"), offset = tensor<uint64, []>(17654848)))];
            tensor<fp16, [512]> image_encoder_model_network_7_1_token_mixer_proj_bias_to_fp16 = const()[name = tensor<string, []>("image_encoder_model_network_7_1_token_mixer_proj_bias_to_fp16"), val = tensor<fp16, [512]>(BLOBFILE(path = tensor<string, []>("@model_path/weights/weight.bin"), offset = tensor<uint64, []>(18179200)))];
            tensor<fp16, [1, 64, 512]> linear_3_cast_fp16 = linear(bias = image_encoder_model_network_7_1_token_mixer_proj_bias_to_fp16, weight = image_encoder_model_network_7_1_token_mixer_proj_weight_to_fp16, x = input1_1_cast_fp16)[name = tensor<string, []>("linear_3_cast_fp16")];
            tensor<int32, [3]> var_1170_perm_0 = const()[name = tensor<string, []>("op_1170_perm_0"), val = tensor<int32, [3]>([0, -1, -2])];
            tensor<int32, [4]> var_1171 = const()[name = tensor<string, []>("op_1171"), val = tensor<int32, [4]>([1, 512, 8, 8])];
            tensor<fp16, [1, 512, 64]> transpose_0 = transpose(perm = var_1170_perm_0, x = linear_3_cast_fp16)[name = tensor<string, []>("transpose_0")];
            tensor<fp16, [1, 512, 8, 8]> var_1172_cast_fp16 = reshape(shape = var_1171, x = transpose_0)[name = tensor<string, []>("op_1172_cast_fp16")];
            tensor<fp16, [512, 1, 1]> image_encoder_model_network_7_1_layer_scale_1_to_fp16 = const()[name = tensor<string, []>("image_encoder_model_network_7_1_layer_scale_1_to_fp16"), val = tensor<fp16, [512, 1, 1]>(BLOBFILE(path = tensor<string, []>("@model_path/weights/weight.bin"), offset = tensor<uint64, []>(18180288)))];
            tensor<fp16, [1, 512, 8, 8]> var_1173_cast_fp16 = mul(x = image_encoder_model_network_7_1_layer_scale_1_to_fp16, y = var_1172_cast_fp16)[name = tensor<string, []>("op_1173_cast_fp16")];
            tensor<fp16, [1, 512, 8, 8]> input_2_cast_fp16 = add(x = var_1122_cast_fp16, y = var_1173_cast_fp16)[name = tensor<string, []>("input_2_cast_fp16")];
            tensor<int32, [2]> var_1181 = const()[name = tensor<string, []>("op_1181"), val = tensor<int32, [2]>([1, 1])];
            tensor<int32, [2]> var_1183 = const()[name = tensor<string, []>("op_1183"), val = tensor<int32, [2]>([1, 1])];
            tensor<string, []> input0_14_pad_type_0 = const()[name = tensor<string, []>("input0_14_pad_type_0"), val = tensor<string, []>("custom")];
            tensor<int32, [4]> input0_14_pad_0 = const()[name = tensor<string, []>("input0_14_pad_0"), val = tensor<int32, [4]>([3, 3, 3, 3])];
            tensor<fp16, [512, 1, 7, 7]> input_4_weight_0_to_fp16 = const()[name = tensor<string, []>("input_4_weight_0_to_fp16"), val = tensor<fp16, [512, 1, 7, 7]>(BLOBFILE(path = tensor<string, []>("@model_path/weights/weight.bin"), offset = tensor<uint64, []>(18181376)))];
            tensor<fp16, [512]> input_4_bias_0_to_fp16 = const()[name = tensor<string, []>("input_4_bias_0_to_fp16"), val = tensor<fp16, [512]>(BLOBFILE(path = tensor<string, []>("@model_path/weights/weight.bin"), offset = tensor<uint64, []>(18231616)))];
            tensor<fp16, [1, 512, 8, 8]> input_4_cast_fp16 = conv(bias = input_4_bias_0_to_fp16, dilations = var_1183, groups = var_17, pad = input0_14_pad_0, pad_type = input0_14_pad_type_0, strides = var_1181, weight = input_4_weight_0_to_fp16, x = input_2_cast_fp16)[name = tensor<string, []>("input_4_cast_fp16")];
            tensor<int32, [2]> var_1193 = const()[name = tensor<string, []>("op_1193"), val = tensor<int32, [2]>([1, 1])];
            tensor<int32, [2]> var_1195 = const()[name = tensor<string, []>("op_1195"), val = tensor<int32, [2]>([1, 1])];
            tensor<string, []> input_6_pad_type_0 = const()[name = tensor<string, []>("input_6_pad_type_0"), val = tensor<string, []>("custom")];
            tensor<int32, [4]> input_6_pad_0 = const()[name = tensor<string, []>("input_6_pad_0"), val = tensor<int32, [4]>([0, 0, 0, 0])];
            tensor<fp16, [1536, 512, 1, 1]> image_encoder_model_network_7_1_convffn_fc1_weight_to_fp16 = const()[name = tensor<string, []>("image_encoder_model_network_7_1_convffn_fc1_weight_to_fp16"), val = tensor<fp16, [1536, 512, 1, 1]>(BLOBFILE(path = tensor<string, []>("@model_path/weights/weight.bin"), offset = tensor<uint64, []>(18232704)))];
            tensor<fp16, [1536]> image_encoder_model_network_7_1_convffn_fc1_bias_to_fp16 = const()[name = tensor<string, []>("image_encoder_model_network_7_1_convffn_fc1_bias_to_fp16"), val = tensor<fp16, [1536]>(BLOBFILE(path = tensor<string, []>("@model_path/weights/weight.bin"), offset = tensor<uint64, []>(19805632)))];
            tensor<fp16, [1, 1536, 8, 8]> input_6_cast_fp16 = conv(bias = image_encoder_model_network_7_1_convffn_fc1_bias_to_fp16, dilations = var_1195, groups = var_5, pad = input_6_pad_0, pad_type = input_6_pad_type_0, strides = var_1193, weight = image_encoder_model_network_7_1_convffn_fc1_weight_to_fp16, x = input_4_cast_fp16)[name = tensor<string, []>("input_6_cast_fp16")];
            tensor<string, []> var_1198_mode_0 = const()[name = tensor<string, []>("op_1198_mode_0"), val = tensor<string, []>("EXACT")];
            tensor<fp16, [1, 1536, 8, 8]> var_1198_cast_fp16 = gelu(mode = var_1198_mode_0, x = input_6_cast_fp16)[name = tensor<string, []>("op_1198_cast_fp16")];
            tensor<int32, [2]> var_1202 = const()[name = tensor<string, []>("op_1202"), val = tensor<int32, [2]>([1, 1])];
            tensor<int32, [2]> var_1204 = const()[name = tensor<string, []>("op_1204"), val = tensor<int32, [2]>([1, 1])];
            tensor<string, []> input_149_pad_type_0 = const()[name = tensor<string, []>("input_149_pad_type_0"), val = tensor<string, []>("custom")];
            tensor<int32, [4]> input_149_pad_0 = const()[name = tensor<string, []>("input_149_pad_0"), val = tensor<int32, [4]>([0, 0, 0, 0])];
            tensor<fp16, [512, 1536, 1, 1]> var_1208_weight_0_to_fp16 = const()[name = tensor<string, []>("op_1208_weight_0_to_fp16"), val = tensor<fp16, [512, 1536, 1, 1]>(BLOBFILE(path = tensor<string, []>("@model_path/weights/weight.bin"), offset = tensor<uint64, []>(19808768)))];
            tensor<fp16, [512]> var_1208_bias_0_to_fp16 = const()[name = tensor<string, []>("op_1208_bias_0_to_fp16"), val = tensor<fp16, [512]>(BLOBFILE(path = tensor<string, []>("@model_path/weights/weight.bin"), offset = tensor<uint64, []>(21381696)))];
            tensor<fp16, [1, 512, 8, 8]> var_1208_cast_fp16 = conv(bias = var_1208_bias_0_to_fp16, dilations = var_1204, groups = var_5, pad = input_149_pad_0, pad_type = input_149_pad_type_0, strides = var_1202, weight = var_1208_weight_0_to_fp16, x = var_1198_cast_fp16)[name = tensor<string, []>("op_1208_cast_fp16")];
            tensor<fp16, [1, 512, 8, 8]> var_1209_cast_fp16 = add(x = input_2_cast_fp16, y = var_1208_cast_fp16)[name = tensor<string, []>("op_1209_cast_fp16")];
            tensor<int32, [2]> var_1214 = const()[name = tensor<string, []>("op_1214"), val = tensor<int32, [2]>([1, 1])];
            tensor<int32, [2]> var_1216 = const()[name = tensor<string, []>("op_1216"), val = tensor<int32, [2]>([1, 1])];
            tensor<string, []> inputs_1_pad_type_0 = const()[name = tensor<string, []>("inputs_1_pad_type_0"), val = tensor<string, []>("custom")];
            tensor<int32, [4]> inputs_1_pad_0 = const()[name = tensor<string, []>("inputs_1_pad_0"), val = tensor<int32, [4]>([1, 1, 1, 1])];
            tensor<fp16, [1024, 1, 3, 3]> image_encoder_model_conv_exp_reparam_conv_weight_to_fp16 = const()[name = tensor<string, []>("image_encoder_model_conv_exp_reparam_conv_weight_to_fp16"), val = tensor<fp16, [1024, 1, 3, 3]>(BLOBFILE(path = tensor<string, []>("@model_path/weights/weight.bin"), offset = tensor<uint64, []>(21382784)))];
            tensor<fp16, [1024]> image_encoder_model_conv_exp_reparam_conv_bias_to_fp16 = const()[name = tensor<string, []>("image_encoder_model_conv_exp_reparam_conv_bias_to_fp16"), val = tensor<fp16, [1024]>(BLOBFILE(path = tensor<string, []>("@model_path/weights/weight.bin"), offset = tensor<uint64, []>(21401280)))];
            tensor<fp16, [1, 1024, 8, 8]> inputs_1_cast_fp16 = conv(bias = image_encoder_model_conv_exp_reparam_conv_bias_to_fp16, dilations = var_1216, groups = var_17, pad = inputs_1_pad_0, pad_type = inputs_1_pad_type_0, strides = var_1214, weight = image_encoder_model_conv_exp_reparam_conv_weight_to_fp16, x = var_1209_cast_fp16)[name = tensor<string, []>("inputs_1_cast_fp16")];
            tensor<int32, [2]> var_1224 = const()[name = tensor<string, []>("op_1224"), val = tensor<int32, [2]>([8, 8])];
            tensor<int32, [2]> var_1225 = const()[name = tensor<string, []>("op_1225"), val = tensor<int32, [2]>([8, 8])];
            tensor<string, []> input_1_pad_type_0 = const()[name = tensor<string, []>("input_1_pad_type_0"), val = tensor<string, []>("custom")];
            tensor<int32, [4]> input_1_pad_0 = const()[name = tensor<string, []>("input_1_pad_0"), val = tensor<int32, [4]>([0, 0, 0, 0])];
            tensor<bool, []> input_1_exclude_padding_from_average_0 = const()[name = tensor<string, []>("input_1_exclude_padding_from_average_0"), val = tensor<bool, []>(false)];
            tensor<bool, []> input_1_ceil_mode_0 = const()[name = tensor<string, []>("input_1_ceil_mode_0"), val = tensor<bool, []>(false)];
            tensor<fp16, [1, 1024, 1, 1]> input_1_cast_fp16 = avg_pool(ceil_mode = input_1_ceil_mode_0, exclude_padding_from_average = input_1_exclude_padding_from_average_0, kernel_sizes = var_1224, pad = input_1_pad_0, pad_type = input_1_pad_type_0, strides = var_1225, x = inputs_1_cast_fp16)[name = tensor<string, []>("input_1_cast_fp16")];
            tensor<int32, [2]> var_1230 = const()[name = tensor<string, []>("op_1230"), val = tensor<int32, [2]>([1, 1])];
            tensor<int32, [2]> var_1232 = const()[name = tensor<string, []>("op_1232"), val = tensor<int32, [2]>([1, 1])];
            tensor<string, []> input0_1_pad_type_0 = const()[name = tensor<string, []>("input0_1_pad_type_0"), val = tensor<string, []>("custom")];
            tensor<int32, [4]> input0_1_pad_0 = const()[name = tensor<string, []>("input0_1_pad_0"), val = tensor<int32, [4]>([0, 0, 0, 0])];
            tensor<fp16, [64, 1024, 1, 1]> image_encoder_model_conv_exp_se_reduce_weight_to_fp16 = const()[name = tensor<string, []>("image_encoder_model_conv_exp_se_reduce_weight_to_fp16"), val = tensor<fp16, [64, 1024, 1, 1]>(BLOBFILE(path = tensor<string, []>("@model_path/weights/weight.bin"), offset = tensor<uint64, []>(21403392)))];
            tensor<fp16, [64]> image_encoder_model_conv_exp_se_reduce_bias_to_fp16 = const()[name = tensor<string, []>("image_encoder_model_conv_exp_se_reduce_bias_to_fp16"), val = tensor<fp16, [64]>(BLOBFILE(path = tensor<string, []>("@model_path/weights/weight.bin"), offset = tensor<uint64, []>(21534528)))];
            tensor<fp16, [1, 64, 1, 1]> input0_1_cast_fp16 = conv(bias = image_encoder_model_conv_exp_se_reduce_bias_to_fp16, dilations = var_1232, groups = var_5, pad = input0_1_pad_0, pad_type = input0_1_pad_type_0, strides = var_1230, weight = image_encoder_model_conv_exp_se_reduce_weight_to_fp16, x = input_1_cast_fp16)[name = tensor<string, []>("input0_1_cast_fp16")];
            tensor<fp16, [1, 64, 1, 1]> input0_2_cast_fp16 = relu(x = input0_1_cast_fp16)[name = tensor<string, []>("input0_2_cast_fp16")];
            tensor<int32, [2]> var_1238 = const()[name = tensor<string, []>("op_1238"), val = tensor<int32, [2]>([1, 1])];
            tensor<int32, [2]> var_1240 = const()[name = tensor<string, []>("op_1240"), val = tensor<int32, [2]>([1, 1])];
            tensor<string, []> x_1_pad_type_0 = const()[name = tensor<string, []>("x_1_pad_type_0"), val = tensor<string, []>("custom")];
            tensor<int32, [4]> x_1_pad_0 = const()[name = tensor<string, []>("x_1_pad_0"), val = tensor<int32, [4]>([0, 0, 0, 0])];
            tensor<fp16, [1024, 64, 1, 1]> image_encoder_model_conv_exp_se_expand_weight_to_fp16 = const()[name = tensor<string, []>("image_encoder_model_conv_exp_se_expand_weight_to_fp16"), val = tensor<fp16, [1024, 64, 1, 1]>(BLOBFILE(path = tensor<string, []>("@model_path/weights/weight.bin"), offset = tensor<uint64, []>(21534720)))];
            tensor<fp16, [1024]> image_encoder_model_conv_exp_se_expand_bias_to_fp16 = const()[name = tensor<string, []>("image_encoder_model_conv_exp_se_expand_bias_to_fp16"), val = tensor<fp16, [1024]>(BLOBFILE(path = tensor<string, []>("@model_path/weights/weight.bin"), offset = tensor<uint64, []>(21665856)))];
            tensor<fp16, [1, 1024, 1, 1]> x_1_cast_fp16 = conv(bias = image_encoder_model_conv_exp_se_expand_bias_to_fp16, dilations = var_1240, groups = var_5, pad = x_1_pad_0, pad_type = x_1_pad_type_0, strides = var_1238, weight = image_encoder_model_conv_exp_se_expand_weight_to_fp16, x = input0_2_cast_fp16)[name = tensor<string, []>("x_1_cast_fp16")];
            tensor<fp16, [1, 1024, 1, 1]> x_2_cast_fp16 = sigmoid(x = x_1_cast_fp16)[name = tensor<string, []>("x_2_cast_fp16")];
            tensor<fp16, [1, 1024, 8, 8]> var_1246_cast_fp16 = mul(x = inputs_1_cast_fp16, y = x_2_cast_fp16)[name = tensor<string, []>("op_1246_cast_fp16")];
            tensor<string, []> var_1247_mode_0 = const()[name = tensor<string, []>("op_1247_mode_0"), val = tensor<string, []>("EXACT")];
            tensor<fp16, [1, 1024, 8, 8]> var_1247_cast_fp16 = gelu(mode = var_1247_mode_0, x = var_1246_cast_fp16)[name = tensor<string, []>("op_1247_cast_fp16")];
            tensor<int32, [2]> var_1249 = const()[name = tensor<string, []>("op_1249"), val = tensor<int32, [2]>([-2, -1])];
            tensor<fp16, [1, 1024]> var_1250_cast_fp16 = reduce_mean(axes = var_1249, keep_dims = var_7, x = var_1247_cast_fp16)[name = tensor<string, []>("op_1250_cast_fp16")];
            tensor<fp16, [512, 1024]> final_emb_1_weight_0_to_fp16 = const()[name = tensor<string, []>("final_emb_1_weight_0_to_fp16"), val = tensor<fp16, [512, 1024]>(BLOBFILE(path = tensor<string, []>("@model_path/weights/weight.bin"), offset = tensor<uint64, []>(21667968)))];
            tensor<fp16, [512]> final_emb_1_bias_0_to_fp16 = const()[name = tensor<string, []>("final_emb_1_bias_0_to_fp16"), val = tensor<fp16, [512]>(BLOBFILE(path = tensor<string, []>("@model_path/weights/weight.bin"), offset = tensor<uint64, []>(22716608)))];
            tensor<fp16, [1, 512]> final_emb_1_cast_fp16 = linear(bias = final_emb_1_bias_0_to_fp16, weight = final_emb_1_weight_0_to_fp16, x = var_1250_cast_fp16)[name = tensor<string, []>("final_emb_1_cast_fp16")];
            tensor<string, []> final_emb_1_cast_fp16_to_fp32_dtype_0 = const()[name = tensor<string, []>("final_emb_1_cast_fp16_to_fp32_dtype_0"), val = tensor<string, []>("fp32")];
            tensor<fp32, [1, 512]> final_emb_1 = cast(dtype = final_emb_1_cast_fp16_to_fp32_dtype_0, x = final_emb_1_cast_fp16)[name = tensor<string, []>("cast_9")];
        } -> (final_emb_1);
}